DQN/policy_net_5000.pth (torch, 543640 bytes, 6 tensors)

weight f4 [256, 6]
0	0x3dd6f58d	0.10496054
1	0xbebc681b	-0.36798176
2	0xbeed735f	-0.46377084
3	0xbc91f093	-0.01781491
4	0x3e4b3160	0.19843054
5	0xbdceebf5	-0.10103599
6	0x3d730527	0.059331086
7	0x3e6561fc	0.2240066
8	0x3e794445	0.24342449
9	0x3cb95ca4	0.022627182
10	0x3ee39bcb	0.44454798
11	0x3e410848	0.18850815
12	0xbe87f61b	-0.2655495
13	0xbe1e0e39	-0.15435113
14	0x3e37a045	0.17932232
15	0xbcbf2490	-0.023332864
16	0x3c3a1521	0.011357577
17	0x3bfe7f09	0.0077666086
18	0x3e29bcf8	0.16575992
19	0xbe901767	-0.28142855
20	0x3ef59a95	0.479695
21	0xbec5b54a	-0.38614875
22	0xbe41b57f	-0.18916892
23	0xbde7ad83	-0.113123916
24	0x3eb7810b	0.3584064
25	0x3e18ba9c	0.14914936
26	0x3ea1d4cd	0.31607667
27	0x3d821321	0.06351305
28	0x3deb50eb	0.11490043
29	0x3dea135a	0.11429472
30	0x3be2761d	0.006911053
31	0xbdce0d43	-0.10061123
32	0xbde98f32	-0.114042655
33	0x3e7f8340	0.24952412
34	0xbd088b48	-0.033335954
35	0xbd961e01	-0.073299415
36	0xbd78cd7f	-0.06074285
37	0x3ebb99a6	0.36640662
38	0xbd1b3ba8	-0.03789869
39	0xbeb68b3e	-0.35653108
40	0xbe809b4d	-0.25118485
41	0x3e94cfbd	0.29064742
42	0xbe1c45e3	-0.15261035
43	0x3d19dfb0	0.03756684
44	0xbda6ee1b	-0.08150884
45	0x3cfb3493	0.030664718
46	0xbe60a350	-0.21937299
47	0x3e40c653	0.18825655
48	0x3e0eb8a6	0.13937625
49	0x3df639bd	0.120227315
50	0x3ebbe23b	0.36696038
51	0x3e87c91d	0.26520625
52	0xbde60a79	-0.11232466
53	0xbeaa1e11	-0.33226064
54	0xbe98e399	-0.29861143
55	0xbebf794d	-0.37397233
56	0x3d9617f7	0.0732879
57	0xbce98ecf	-0.02851048
58	0xbe80d3a9	-0.25161484
59	0x3e148f71	0.14507844
60	0x3d2d5e85	0.04232647
61	0x3e1726e7	0.14760934
62	0xbe84edcc	-0.25962675
63	0xbf008230	-0.5019865
64	0xbddd2add	-0.10799191
65	0xbe1f03ca	-0.15528789
66	0x3e4bdaaa	0.19907632
67	0xbeac22ed	-0.33620396
68	0x3bcbb73a	0.0062169107
69	0xbc6f0650	-0.014588907
70	0x3d451a2d	0.048120666
71	0x3e6b4e5d	0.22979112
72	0x3d46d9ae	0.04854744
73	0xbe9ea44f	-0.30984733
74	0xbdbaac93	-0.09114947
75	0x3ec690a0	0.38782215
76	0x3eb9e51c	0.3630761
77	0x3e1a2d15	0.1505626
78	0xbda43d73	-0.08019533
79	0xbd3084be	-0.043095343
80	0xbd696e8c	-0.05699019
81	0x3db35567	0.087565236
82	0xbe06ffc2	-0.13183501
83	0xbe295952	-0.16537979
84	0x3ebe9290	0.37221193
85	0xbc0087be	-0.007844863
86	0x3eb32938	0.34992385
87	0x3eb025d3	0.34403858
88	0xbd05756c	-0.032582685
89	0x3e1bb249	0.15204729
90	0x3e8fddde	0.2809896
91	0x3e812707	0.25225088
92	0xbdaf53f3	-0.08560934
93	0x3eac4163	0.33643636
94	0xbc443b47	-0.011977023
95	0x3e38ceb8	0.18047607
96	0x3e5283dd	0.20558114
97	0x3ec9490d	0.39313546
98	0x3ed76626	0.4207012
99	0xbeea81c9	-0.45802143
100	0xbc902248	-0.017594472
101	0x3e35c963	0.17752604
102	0x3e869ca1	0.26291373
103	0xbdca1162	-0.09866597
104	0x3e289dae	0.164664
105	0x3c449dc9	0.01200051
106	0xbeb2996b	-0.34882674
107	0x3d0e03e1	0.034671668
108	0x3cb83279	0.022485005
109	0xbea8fd4e	-0.33005756
110	0x3d6adc73	0.057339143
111	0xbe9d3e0a	-0.30711395
112	0x3dc56492	0.09638323
113	0x3dc9c288	0.09851557
114	0xbed88bfe	-0.42294306
115	0xbe7c46bb	-0.24636357
116	0xbe5ed718	-0.21761739
117	0x3e417187	0.18890963
118	0xbdab3859	-0.08360357
119	0xbdc199c4	-0.094531566
120	0x3e88cac9	0.26717213
121	0xbdae855e	-0.085215315
122	0x3ca07803	0.019588476
123	0xbbdd2c69	-0.006749679
124	0x3e267db7	0.16258894
125	0x3ebc103b	0.36731133
126	0x3e7b4eef	0.2454183
127	0x3eb1f60f	0.3475804
128	0x3dc44f2e	0.09585415
129	0x3e9bdaaa	0.30440265
130	0xbe5d8443	-0.21632485
131	0xbe9cd052	-0.30627686
132	0x3dd2b7df	0.10288977
133	0xbdec7036	-0.1154484
134	0x3c5da13c	0.013527211
135	0x3e974b14	0.29549468
136	0xbe1ea4c7	-0.15492545
137	0x3d8f39da	0.06993456
138	0xbcfab49b	-0.030603698
139	0xbe09f3aa	-0.13471857
140	0xbe2d02ae	-0.16895553
141	0xbdb9fe19	-0.090816684
142	0x3e217c5e	0.15770099
143	0xbe015334	-0.12629396
144	0xbe8ed1cb	-0.27894434
145	0x3e8a2f91	0.26989415
146	0xbefb6b3b	-0.49105248
147	0xbce26427	-0.027635647
148	0x3aafa2db	0.0013399975
149	0x3df98362	0.121832624
150	0xbe53f51e	-0.20698974
151	0x3e1eff31	0.15527035
152	0x3e33fbef	0.17576574
153	0xbe4ad22a	-0.19806734
154	0x3e0e9779	0.1392497
155	0xbec46f99	-0.38366392
156	0x3d40f1a6	0.047105454
157	0x3c039b08	0.008032568
158	0xbe8f7f42	-0.28026778
159	0xbbe95065	-0.0071201795
160	0xbd85b751	-0.065291055
161	0x3d504eec	0.050856516
162	0xbe16351c	-0.14668697
163	0x3ebfb70d	0.37444344
164	0x3ebb793c	0.36615932
165	0x3d15cbb1	0.03657121
166	0x3da8b02d	0.08236728
167	0x3ea07b80	0.31344223
168	0x3dd9ee22	0.10641123
169	0x3e48bca0	0.19603205
170	0xbde3470b	-0.11097535
171	0x3e5de16a	0.2166802
172	0x3e5446a3	0.20730071
173	0x3e991be1	0.29904082
174	0x3e33fba4	0.17576462
175	0x3e822f03	0.25426492
176	0x39d17089	0.00039947432
177	0x3d00c6cf	0.0314396
178	0x3e039eac	0.12853497
179	0x3ec2af89	0.38024548
180	0xbde2935c	-0.11063263
181	0xbec34f3c	-0.3814639
182	0x3e0c0284	0.13672835
183	0xbe1f4775	-0.15554602
184	0xbeb0ab81	-0.34505847
185	0xbec4cc45	-0.38437095
186	0x3e0ddf93	0.13854818
187	0x3e31b5fa	0.17354575
188	0xbe7dae95	-0.24773629
189	0xbebf2433	-0.37332305
190	0x3e5f2ae9	0.21793713
191	0xbbd6a92e	-0.0065509295
192	0xbe927020	-0.2860117
193	0xbe568961	-0.20950843
194	0x3e26147e	0.16218755
195	0xbe719601	-0.23592378
196	0x3d16c738	0.036811084
197	0xbeadb070	-0.33923674
198	0xbe2f2560	-0.17104101
199	0x3da8778d	0.082259275
200	0x3d14051e	0.036137693
201	0x3d67020f	0.056398448
202	0xbec6be34	-0.38816988
203	0x3eb8f220	0.36122227
204	0x3e9d4dad	0.30723324
205	0x3ec01a04	0.37519848
206	0xbddb36d3	-0.10703816
207	0xbebff8d1	-0.3749452
208	0xbe90617f	-0.28199384
209	0xbeaf1913	-0.34198818
210	0xbdc070c2	-0.09396507
211	0x3dcecad4	0.1009728
212	0x3ec19e5a	0.37816125
213	0xbecaf725	-0.3964168
214	0xbe1d834e	-0.1538212
215	0xbdedfe8e	-0.11620818
216	0x3dfffd5a	0.12499495
217	0x3d84eb60	0.06490207
218	0xbe43192b	-0.1905257
219	0x3dccf5e9	0.10007841
220	0x3d0316aa	0.032004036
221	0xbe9a6df7	-0.30162022
222	0xbe4dd575	-0.20100959
223	0xbe00c8fa	-0.12576666
224	0xbdec699e	-0.115435824
225	0x3c2687e2	0.010164233
226	0xbe900a45	-0.28132835
227	0x3def083e	0.11671494
228	0x3eb43993	0.35200176
229	0x3e1a6bc0	0.15080166
230	0xbdb11926	-0.08647375
231	0xbe52649f	-0.20546196
232	0xbdbd2ddc	-0.092372626
233	0xbd33bc6d	-0.04388087
234	0x3e86b8ca	0.26312858
235	0xbe98242d	-0.297151
236	0x3e8a2b28	0.2698605
237	0x3e3e285f	0.18570088
238	0x3e074345	0.13209255
239	0xbeb441f4	-0.35206568
240	0x3d2bc7cf	0.0419386
241	0xbe105562	-0.14095071
242	0x3eada4c2	0.33914763
243	0xbea45b44	-0.3210088
244	0x3ea60ef6	0.3243329
245	0x3dcea188	0.100894034
246	0xbd156d04	-0.03648092
247	0x3e77a761	0.24184944
248	0x3e066bcf	0.13127063
249	0xbaba8897	-0.0014231381
250	0x3d933040	0.07186937
251	0x3d9217ff	0.07133483
252	0x3e69dd73	0.22838382
253	0xbe22f930	-0.1591537
254	0xbda2dc07	-0.07952123
255	0xbebede39	-0.37278917

bias f4 [256]
0	0x3e8112f0	0.2520976
1	0xbe23de86	-0.16002855
2	0x3efb326b	0.49061903
3	0xbe96a079	-0.29419306
4	0x3e67e7e6	0.22647056
5	0x3ee196a9	0.44060257
6	0x3e9ca733	0.30596313
7	0xbe00f11b	-0.12591974
8	0x3d3e390f	0.046441134
9	0xbda15353	-0.07877221
10	0xbd9b81f2	-0.075931445
11	0xbe9f26f9	-0.3108442
12	0xbe199add	-0.15000482
13	0xbe87870c	-0.2647022
14	0xbe27aa58	-0.16373575
15	0x3e64ddcb	0.22350232
16	0xbd8cc9d0	-0.0687443
17	0xbea3ed2e	-0.3201689
18	0x3f141f13	0.57859915
19	0xbdac72a9	-0.08420307
20	0xbe78259c	-0.24233097
21	0x3e90b0f9	0.2826002
22	0x3ea486ff	0.32134244
23	0xbedc8acf	-0.43074653
24	0x3e9b3d62	0.3032027
25	0xbe3e06d3	-0.1855729
26	0xbee428c5	-0.44562355
27	0x3e9be835	0.30450597
28	0xbe2ffb60	-0.17185736
29	0xbec45103	-0.38343057
30	0xbe24bdcf	-0.16088031
31	0x3ebaedb6	0.36509484
32	0x3dde1d88	0.108454764
33	0x3db30d3a	0.08742757
34	0x3e72a2a3	0.23694853
35	0x3d860e4f	0.06545698
36	0xbe22948d	-0.1587698
37	0x3efa3bf6	0.48873872
38	0x3e8632e5	0.26210704
39	0xbe8b8de4	-0.2725669
40	0x3e8a6699	0.270314
41	0x3ea8bf39	0.3295839
42	0x3f104cb8	0.56367064
43	0x3e09c01b	0.13452189
44	0x3e9a298d	0.30109826
45	0xbe65931e	-0.22419402
46	0xbe893535	-0.26798406
47	0xbeaa2a57	-0.33235428
48	0x3e6f8253	0.23389558
49	0x3e053d16	0.13011584
50	0x3ea6c3b4	0.32571185
51	0x3e1b3ac2	0.15159133
52	0x3f061cf7	0.52387947
53	0x3ed74a5f	0.42048928
54	0x3ea5c067	0.32373354
55	0x3f02c2e2	0.5107862
56	0x3ed4b40f	0.41543624
57	0x3e229a72	0.15879229
58	0xbf019005	-0.5061038
59	0xbca4df67	-0.020126058
60	0xbeb60af8	-0.35555243
61	0x3ee025e6	0.43778914
62	0xbd1ba8a2	-0.038002618
63	0x3ed0705b	0.4071072
64	0xbc1a9380	-0.009434581
65	0xbe5107f1	-0.20413186
66	0xbe2e8b18	-0.17045248
67	0x3e6016a8	0.21883643
68	0xbbc1db13	-0.0059160083
69	0x3f0e55a4	0.5559943
70	0x3f086538	0.5327945
71	0x3eec84ea	0.46195155
72	0x3e181c5d	0.1485457
73	0xbd85ebd5	-0.06539122
74	0x3e82fb9e	0.25582594
75	0x3efc7b24	0.493127
76	0x3f170c1e	0.59002864
77	0xbdffe41c	-0.1249468
78	0x3ef2dc03	0.4743348
79	0x3e690a81	0.22757913
80	0xbe9110a2	-0.28333002
81	0x3ec5c2a4	0.38625062
82	0xbd8e6db9	-0.06954522
83	0xbe3f3222	-0.18671468
84	0x3ee00d31	0.43760064
85	0x3ef17cde	0.4716558
86	0x3e60ef06	0.2196618
87	0x3eac071d	0.33599177
88	0x3e76d7b6	0.24105725
89	0xbec5cfcf	-0.38635108
90	0x3d944323	0.07239368
91	0xbe5bc93d	-0.21463485
92	0xbeb33eeb	-0.3500894
93	0xbea1eb81	-0.31624988
94	0xbe350827	-0.17678891
95	0xbd3a8409	-0.045536075
96	0x3f06db7b	0.5267865
97	0xbc84914a	-0.01618256
98	0xbdc30a6a	-0.09523471
99	0x3e704d14	0.23466903
100	0xbef67aaa	-0.4814046
101	0x3eb46f79	0.35241297
102	0xbdf4f290	-0.119603276
103	0x3ed1ef7e	0.4100303
104	0x3e0fbc32	0.14036635
105	0xbe9b46c6	-0.30327433
106	0xbe921ad9	-0.28536108
107	0x3e979a01	0.29609683
108	0x3efdc3fc	0.49563587
109	0x3f184ca8	0.5949197
110	0xbd49d8e8	-0.049279124
111	0x3f0f148c	0.5589073
112	0x3e6fa798	0.23403776
113	0x3e0a7852	0.13522461
114	0x3e26c6d7	0.16286789
115	0xbe91876b	-0.28423628
116	0x3e83f228	0.25770688
117	0x3e747232	0.23871687
118	0x3f119b65	0.5687774
119	0xbd87bcd1	-0.06627811
120	0x3ea887ef	0.3291621
121	0x3dd70a74	0.10500041
122	0xbe2485d7	-0.16066681
123	0xbef2454d	-0.47318497
124	0xbc8b25a6	-0.016985726
125	0xbd93d110	-0.0721761
126	0x3e8f8684	0.28032315
127	0x3f13ae92	0.5768825
128	0xbd9b6043	-0.0758672
129	0xbd86cf04	-0.06582454
130	0xbd429a1b	-0.047510248
131	0xbeb6bef7	-0.3569257
132	0x3e97ecb4	0.29672778
133	0xbe491d5a	-0.19640103
134	0x3ec93ae4	0.39302742
135	0x3ecdbb62	0.40182024
136	0x3e2b1e8d	0.16710873
137	0xbea57dea	-0.32322627
138	0x3e2021a1	0.15637828
139	0x3eb908af	0.36139438
140	0xbe3181b9	-0.17334642
141	0x3e4201d3	0.18946008
142	0x3edf336c	0.4359392
143	0x3eded149	0.43519047
144	0xbedc4805	-0.43023697
145	0xbe715691	-0.23568179
146	0x3f0030f0	0.5007467
147	0xbebbdfca	-0.36694175
148	0xbea89444	-0.32925618
149	0x3e996686	0.29961032
150	0x3c443041	0.011974395
151	0x3ef127de	0.4710073
152	0xbeb59e79	-0.35472468
153	0x3da89641	0.08231784
154	0x3d982b68	0.07430154
155	0xbe9d6fda	-0.30749398
156	0x3f02e5c7	0.5113186
157	0xbe0e5ca4	-0.13902527
158	0xbd039e34	-0.032133296
159	0xbec058e5	-0.3756782
160	0x3e62d08b	0.22149865
161	0xbe565378	-0.20930278
162	0x3e82739f	0.25478837
163	0x3f0e9b8f	0.55706114
164	0xbe9c1982	-0.3048821
165	0xbe64a914	-0.22330123
166	0x3ec71138	0.38880324
167	0xbef23d90	-0.47312593
168	0x3ec100bd	0.37695876
169	0x3c13386a	0.008985618
170	0xbed55852	-0.41668946
171	0x3ea076ba	0.3134058
172	0x3eae5ea6	0.34056586
173	0x3e7ae4ec	0.2450139
174	0x3e99ce33	0.3004013
175	0xbe3e17a8	-0.18563712
176	0xbae35dd2	-0.0017346686
177	0xbe8900b1	-0.2675834
178	0x3ef8ad0d	0.48569527
179	0x3d1c9acc	0.038233563
180	0x3f17daba	0.59318125
181	0xbebc2335	-0.3674561
182	0xbe89b14b	-0.26893076
183	0x3efb6b23	0.49105176
184	0x3ed70828	0.4199841
185	0x3d89afe6	0.06723003
186	0x3e080a8d	0.13285275
187	0x3e7f8b00	0.24955368
188	0xbe1f3dbf	-0.15550898
189	0x3e9e88c8	0.3096373
190	0x3e8f3a64	0.27974236
191	0xbeafbf29	-0.3432553
192	0x3e0f86f2	0.14016321
193	0x3da451b8	0.08023399
194	0x3c9388da	0.018009592
195	0xbecdac3f	-0.40170476
196	0x3c2f50ad	0.010700387
197	0xbe0f5a80	-0.13999367
198	0x3f065586	0.5247425
199	0xbe381704	-0.1797753
200	0xbe3a8259	-0.18213786
201	0x3f0103de	0.50396526
202	0x3ebd306b	0.36951002
203	0x3ec5336f	0.38515803
204	0xbeb59b73	-0.3547016
205	0x3e3449cf	0.1760628
206	0xbe182d22	-0.14860967
207	0xbe9dcfe1	-0.30822662
208	0xbdefdeee	-0.11712442
209	0x3e5a6280	0.21326637
210	0x3e3e239d	0.18568273
211	0xbe0af68e	-0.13570616
212	0xbe087088	-0.13324177
213	0xbeb237a1	-0.34808066
214	0x3eeb7daa	0.45994312
215	0x3ddb4062	0.107056394
216	0x3e30f6c8	0.1728164
217	0x3f0443a5	0.5166572
218	0x3e1b1760	0.15145636
219	0x3ea1a5c5	0.31571785
220	0xbd9cf85d	-0.07664559
221	0xbe3f7e68	-0.18700564
222	0x3edca1de	0.43092245
223	0xbca232e9	-0.019799666
224	0x3e268a34	0.16263658
225	0x3e9b4d83	0.30332574
226	0x3eb9afa3	0.36266813
227	0xbe4717fa	-0.1944274
228	0xbe5969fe	-0.21231839
229	0x3e825bc9	0.25460652
230	0xbcc88c45	-0.024480948
231	0xbe3366de	-0.1751971
232	0x3efec3d1	0.4975877
233	0x3f0bce80	0.5461197
234	0x3ec31578	0.38102317
235	0xbea3badb	-0.31978497
236	0x3d9e9500	0.07743263
237	0x3ebca19b	0.36842045
238	0xbebd2d1d	-0.3694848
239	0x3e03de87	0.12877856
240	0x3e20f862	0.1571975
241	0x3cf8493f	0.030308364
242	0xbe444fd1	-0.19171073
243	0x3e420cfd	0.18950267
244	0xbe32113d	-0.17389388
245	0x3e15c577	0.14626108
246	0x3f01ad98	0.5065551
247	0xbe40eba1	-0.18839885
248	0x3ec385e2	0.38188082
249	0x3e973600	0.29533386
250	0x3d9e2a73	0.0772294
251	0xbeb01d84	-0.3439752
252	0x3ebfa869	0.37433174
253	0x3e59779e	0.21237037
254	0x3f05a790	0.52208805
255	0x3e36e63d	0.17861266

weight f4 [512, 256]
0	0x3df31eaa	0.11871083
1	0x3bf74949	0.007546578
2	0x3e2c4320	0.16822481
3	0xbbb3dcc6	-0.0054889647
4	0x3cb9d1b3	0.022683
5	0x3db1b4f4	0.08677092
6	0x3d032edd	0.032027114
7	0xbc6768be	-0.014124094
8	0x3d351f7c	0.04421948
9	0xbca996bb	-0.020701757
10	0x3dc6be9e	0.09704326
11	0xbba1ebc2	-0.0049414346
12	0xbd4b0cad	-0.049572635
13	0xbe2f4cf0	-0.17119193
14	0x3db30bef	0.087425105
15	0xbb844940	-0.0040370524
16	0x3c4c495e	0.012468664
17	0xbd930ef8	-0.071805894
18	0x3db8da6d	0.090260364
19	0x3d40fa02	0.047113426
20	0xbd746d43	-0.059674513
21	0x3daf3a5f	0.08556055
22	0x3d821a96	0.06352727
23	0xbde0dc7b	-0.10979553
24	0x3e134238	0.14380729
25	0xbbb31f94	-0.005466411
26	0xbe418369	-0.18897785
27	0x3acfb518	0.0015846817
28	0xbd4156f9	-0.047202084
29	0xbd8c873a	-0.0686173
30	0xbdb8721c	-0.0900614
31	0x3de13807	0.109970145
32	0x3d87e38e	0.066351995
33	0x3d080987	0.03321221
34	0x3ce25034	0.027626134
35	0x3d49636e	0.04916709
36	0xbd4ef3df	-0.050525542
37	0x3d007d6f	0.031369623
38	0x3db5b647	0.08872657
39	0xbd43b86c	-0.0477833
40	0x3d5dca30	0.0541479
41	0x3df05540	0.1173501
42	0x3db14f66	0.08657722
43	0x3d997c22	0.074943796
44	0x3cad9b58	0.021192238
45	0xbc10bf10	-0.008834615
46	0xbc065d2e	-0.008200927
47	0xbdb4e553	-0.088328026
48	0x3dd6364b	0.10459574
49	0x3bf81df5	0.0075719305
50	0x3dc632f1	0.09677685
51	0xbc3d4bda	-0.011553729
52	0x3d37b50e	0.0448504
53	0x3cc664ae	0.02421793
54	0x3dbe1130	0.09280622
55	0x3d3d8ed5	0.046278793
56	0x3d659636	0.056051455
57	0x3d74e5d6	0.0597895
58	0xbda00a8b	-0.07814511
59	0xbb65703a	-0.003500952
60	0xbd376ac8	-0.04477957
61	0x3db22de9	0.08700163
62	0x3c5268bf	0.012842356
63	0xbca971e1	-0.020684185
64	0x3d3496f6	0.04408928
65	0xbcd2acfd	-0.025717253
66	0xbd96b30f	-0.073583715
67	0xbc5a9508	-0.013341196
68	0x3d1f8560	0.038945556
69	0x3db1e455	0.08686129
70	0x3d615dbf	0.055021044
71	0x3ce03c3b	0.02737247
72	0xbc8413b5	-0.016122678
73	0x3d61337e	0.054980747
74	0x3c64d4bd	0.013966736
75	0x3d3f9bfe	0.046779625
76	0x3d57dfff	0.052703854
77	0x3bc71e11	0.0060765822
78	0x3d35b0bb	0.044357996
79	0x3db6c449	0.08924157
80	0xbd90d4d0	-0.07071841
81	0x3cddac72	0.027059767
82	0x3d31b2b8	0.04338333
83	0xbd12f966	-0.035882376
84	0x3d39ff4f	0.045409497
85	0x3cefe877	0.029285653
86	0x3d74f461	0.05980337
87	0xbae14985	-0.0017188048
88	0x3d062123	0.032746445
89	0xbdcd2358	-0.10016507
90	0xbc32fb0d	-0.010924113
91	0x3d5d54dd	0.05403601
92	0x3ce2eeb0	0.027701706
93	0xbd34328b	-0.043993514
94	0xbd69bb14	-0.057063177
95	0x3c8c36eb	0.01711603
96	0x3dc48d28	0.09597236
97	0x3d071bcf	0.032985505
98	0x3d96ef0e	0.07369815
99	0x3c584c2c	0.013201755
100	0xbd460764	-0.048346892
101	0xbbd9ae31	-0.0066430797
102	0xbd5954d9	-0.053059433
103	0x3ba51e6d	0.0050390274
104	0x3e005bd8	0.12535036
105	0xbd51025e	-0.05102765
106	0xbc220840	-0.009889662
107	0x3c0cf97b	0.008604403
108	0x3dca45cc	0.09876594
109	0x3d3a2002	0.04544068
110	0x3be4128f	0.00696022
111	0x3d60395f	0.054742213
112	0x3d84e200	0.064884186
113	0xbbedb3fa	-0.007254121
114	0x3dc74186	0.097292945
115	0xbc4da112	-0.012550609
116	0x3d9bf42d	0.07614932
117	0x3cd405f5	0.025881747
118	0x3d603c2e	0.05474489
119	0xbca82613	-0.020525968
120	0x3d874e35	0.06606714
121	0x3d993905	0.07481579
122	0xbd9ad4cf	-0.07560121
123	0xbdbad997	-0.09123533
124	0x3c49e20a	0.012321958
125	0x3c373cc4	0.011183921
126	0x3e0cf06b	0.13763587
127	0x3e0b06b2	0.13576773
128	0x3e3d6ca4	0.18498474
129	0x3c9bb69d	0.019007975
130	0xbd42fbae	-0.0476033
131	0xbc3ee33e	-0.011650858
132	0x3e0c6109	0.13708891
133	0xbd6ee66d	-0.05832522
134	0x3df49fd2	0.11944546
135	0x3d7b384b	0.061332982
136	0xbc5ef0b5	-0.013607194
137	0xbd063a95	-0.032770712
138	0x3da328a2	0.079667345
139	0x3d323f21	0.043517236
140	0x3e07099f	0.13187264
141	0x3d3fdadd	0.046839584
142	0x3c4f6afa	0.012659783
143	0x3d04f15f	0.032456752
144	0xbd9fae66	-0.07796936
145	0xbd5925bc	-0.053014502
146	0x3d1cb2ea	0.038256563
147	0xbd81d92b	-0.0634025
148	0xbd214e51	-0.03938133
149	0x3d8fe9ae	0.07026993
150	0x3caea861	0.021320524
151	0x3dbf64ff	0.09345435
152	0xbd9fd770	-0.07804763
153	0x3cd89277	0.026437027
154	0xbc291a3d	-0.010321197
155	0xbbb459b1	-0.005503856
156	0x3d96f327	0.073705964
157	0xbd2a3850	-0.04155761
158	0xbd790c1e	-0.06080257
159	0xbcf315f5	-0.029673556
160	0x3d644d4e	0.055737786
161	0xbd07d3f7	-0.03316113
162	0x3d522cd7	0.051312294
163	0x3d6862e9	0.056734953
164	0xbd10aa90	-0.03531891
165	0xbcde5b05	-0.02714301
166	0x3e2e9928	0.17050612
167	0xbd94e8ec	-0.07270989
168	0x3d96f007	0.0737
169	0xbc4760f8	-0.012169115
170	0xbd085c46	-0.033291124
171	0x3d69df82	0.05709792
172	0x3d1565d7	0.036474075
173	0x3ce23039	0.027610885
174	0x3d253cab	0.04034106
175	0x3d93afb7	0.07211249
176	0x3cab5c57	0.020918055
177	0x3cd44cc2	0.025915507
178	0x3e186ef0	0.1488607
179	0x3d1ba0bd	0.03799509
180	0x3e09a658	0.13442361
181	0xbce4d352	-0.027932797
182	0xbca0c481	-0.01962495
183	0x3d7544bf	0.059880015
184	0x3d9310d7	0.07180946
185	0xbd149d83	-0.036283027
186	0x3d920a14	0.071308285
187	0xbbb54dad	-0.0055329413
188	0x3d3a3d37	0.045468535
189	0xbc1380d5	-0.009002884
190	0x3db0d12c	0.08633646
191	0xbd1bb645	-0.038015623
192	0x3d0c241c	0.034214124
193	0x3d9713ea	0.07376845
194	0x3baeff8d	0.0053405226
195	0xbd67e989	-0.0566192
196	0xbc9d2f64	-0.019187637
197	0x3c826f4a	0.015922207
198	0x3e31fe07	0.1738206
199	0x3d509d03	0.050930988
200	0x3da013e2	0.07816292
201	0x3dadc4a0	0.08484769
202	0x3cd44473	0.025911545
203	0x3dcb41bc	0.09924647
204	0x3ceb8711	0.028750928
205	0x3d8454db	0.064614974
206	0x3d2114d8	0.03932652
207	0x3d137c80	0.036007404
208	0x3c288f13	0.010288018
209	0x3d43d7fb	0.047813397
210	0x3d9a572b	0.07536157
211	0xbc99ca87	-0.01877333
212	0xbd558e88	-0.05213788
213	0xbcf67617	-0.030085607
214	0x3dc8e553	0.09809365
215	0xbbe67189	-0.0070325774
216	0x3d5b997a	0.053613164
217	0x3dc05d88	0.0939284
218	0x3d6a1842	0.05715204
219	0x3e01be59	0.12670268
220	0x3d9a9590	0.07548058
221	0xbcbbe6f8	-0.022937283
222	0x3ccf355b	0.025293997
223	0xbc67b997	-0.014143369
224	0x3d732a2d	0.059366394
225	0x3d929583	0.07157423
226	0x3d1fa536	0.038975917
227	0x3cb8193c	0.02247297
228	0xbd6336d1	-0.0554722
229	0x3dc29193	0.09500422
230	0xbd144c36	-0.036205493
231	0x3c27e204	0.010246757
232	0x3e23d446	0.15998945
233	0x3da30791	0.079604276
234	0x3d4e513f	0.05037045
235	0xbc496627	-0.012292421
236	0xbd1697a3	-0.036765706
237	0x3d85d87d	0.065354325
238	0x3d7112cb	0.058855813
239	0x3bda9492	0.006670543
240	0x3d85fff5	0.065429606
241	0x3dcc4e47	0.09975868
242	0xbd3b3241	-0.045702223
243	0x3cf7a435	0.030229667
244	0xbdb9c9f2	-0.09071721
245	0x3d6b1778	0.05739543
246	0x3d618b57	0.055064525
247	0x3c60a148	0.013710327
248	0x3dc38790	0.09547341
249	0x3d86d7ba	0.06584115
250	0xbc39987c	-0.011327859
251	0x3da7b3c4	0.081885844
252	0x3d2757ef	0.040855344
253	0x3dfad44f	0.12247526
254	0x3cb670e3	0.022270625
255	0x3d57c750	0.052680314

bias f4 [512]
0	0x3da0f9d8	0.07860154
1	0xbd4d7cd9	-0.050167892
2	0xbdce9ddb	-0.10088702
3	0x3e093bb9	0.13401689
4	0x3dd9b935	0.106310286
5	0xbe011858	-0.12606943
6	0x3db3b559	0.08774824
7	0x3dbac957	0.09120434
8	0x3e07bde1	0.13256027
9	0xbdcad599	-0.09904022
10	0x3c2bf10a	0.01049448
11	0xbc728974	-0.014803279
12	0x3db88ae9	0.0901087
13	0x3dac95d8	0.08427018
14	0x3da793ba	0.081824735
15	0x3dc7122f	0.09720265
16	0xbe1e760e	-0.15474722
17	0x3da4e622	0.08051707
18	0x3e1e3b0d	0.15452214
19	0xbb8d6f95	-0.00431628
20	0x3e13c845	0.14431866
21	0x3e3fc495	0.18727334
22	0x3dcc7e01	0.09984971
23	0xbe2caf2d	-0.168637
24	0x3db52461	0.08844829
25	0xbd925c23	-0.0714648
26	0x3d670055	0.0563968
27	0xbdccbd0e	-0.09996997
28	0x3da9c861	0.08290172
29	0xbd1e156b	-0.038594645
30	0xbd4ccb36	-0.049998485
31	0xbd26227f	-0.04056024
32	0x3e1d4e28	0.15361845
33	0xbdc4b7e7	-0.09605389
34	0xbda23147	-0.07919555
35	0xbdbf0a59	-0.093281455
36	0x3cf4d060	0.029884517
37	0x3e37b26c	0.17939156
38	0xbd0f2411	-0.034946505
39	0x3e244e19	0.16045417
40	0xbcf2775e	-0.029597934
41	0x3d85eea3	0.06539657
42	0xbc93f813	-0.018062627
43	0x3d9f9f07	0.07794004
44	0xbdb45015	-0.08804337
45	0xbd45f695	-0.048330862
46	0x3d642ab8	0.055704802
47	0x3de2c2e3	0.11072328
48	0xbddbab15	-0.10725991
49	0x3d82e703	0.06391718
50	0xbe22fd2f	-0.15916894
51	0x3e144ba1	0.14481975
52	0x3e31dc7f	0.17369269
53	0x3e06a8f6	0.13150391
54	0x3dc54b76	0.09633534
55	0xbdb8e888	-0.09028727
56	0xbda80809	-0.082046576
57	0xbe14f752	-0.1454747
58	0x3d87872b	0.06617578
59	0x3e1935d7	0.14961945
60	0xbdcafe12	-0.09911741
61	0x3d84f91c	0.06492826
62	0x3e08920e	0.13336965
63	0xbd19d8b6	-0.037560187
64	0xbd8bdeb0	-0.06829584
65	0x3dfe95df	0.124309294
66	0x3dc2f75b	0.095198356
67	0xbdba4e06	-0.09096913
68	0x3db4ba54	0.08824602
69	0x3e21bd91	0.1579497
70	0x3de0620e	0.109562024
71	0x3e26b47e	0.1627979
72	0x3e2c0ba3	0.16801314
73	0xbd9fe899	-0.07808036
74	0xbdd5105b	-0.1040351
75	0xbaf7bcd9	-0.0018900885
76	0x3d6eb2ad	0.058275867
77	0x3db28a4d	0.08717785
78	0x3dcdd4c4	0.100503474
79	0xbdac05e2	-0.083995596
80	0xbdf782f3	-0.120855235
81	0x3df84a39	0.12123532
82	0x3dd85b63	0.10564306
83	0x3e20503c	0.15655607
84	0x3d8d3434	0.068947226
85	0xbcd41482	-0.025888685
86	0xbb4b9da5	-0.0031069305
87	0x3bc5581b	0.006022466
88	0x3e197162	0.14984658
89	0x3d7e638b	0.06210665
90	0x3daf7cc1	0.08568717
91	0xbde49830	-0.1116184
92	0x3e17a485	0.14808853
93	0x3e0e6304	0.13904959
94	0x3e113986	0.141821
95	0x3e107846	0.1410838
96	0x3e2dc99f	0.16971444
97	0xbd84947f	-0.06473636
98	0xbce4c57a	-0.027926195
99	0xbc999c7c	-0.018751375
100	0x3ddf8efc	0.10915944
101	0x3e174803	0.14773564
102	0xbe0a47e2	-0.13503984
103	0xbc7c58f9	-0.015402072
104	0x3bf9257c	0.0076033454
105	0x3d5ebd6d	0.05437987
106	0xbd5cd4a0	-0.053913713
107	0xbd8a2931	-0.06746138
108	0x3db9e9cf	0.090777986
109	0x3da3fff3	0.08007803
110	0xbcea26ef	-0.028583018
111	0xbdc19ef1	-0.09454144
112	0xbda1b614	-0.07896057
113	0xbd6a5222	-0.057207234
114	0xbd42ceff	-0.047560688
115	0xbc13c543	-0.009019199
116	0xbd01f704	-0.031729713
117	0x3dbf1c65	0.09331588
118	0xbe20ae3e	-0.15691468
119	0xbd8c4241	-0.068485744
120	0x3db48d36	0.08815996
121	0x3dcb759d	0.09934542
122	0x3e234cb1	0.15947224
123	0x3cc13196	0.023583215
124	0x3d98a934	0.07454148
125	0x3d379b94	0.044826105
126	0x3d4c4a9c	0.04987584
127	0xbd9e720b	-0.07736596
128	0xbe15f78e	-0.14645216
129	0x3e144018	0.14477575
130	0x3d9df18e	0.077120885
131	0x3d6abc34	0.05730839
132	0xbdc8dd7b	-0.09807869
133	0x3e18d0a5	0.14923342
134	0xbd22d2d2	-0.039751835
135	0x3e23cdb9	0.15996446
136	0xbc8d967a	-0.017283667
137	0x3da4c35b	0.080450736
138	0x3dbd5bf0	0.09246051
139	0x3d63d2b3	0.05562086
140	0x3df30f9b	0.11868211
141	0x3d8b1aa9	0.067921944
142	0x3db74625	0.08948926
143	0x3e1fdf0d	0.15612431
144	0x3da0f007	0.078582816
145	0x3d35595c	0.044274673
146	0x3cfb7040	0.030693173
147	0xbc52f793	-0.012876409
148	0x3e08fe76	0.13378319
149	0x3e1d4d4c	0.15361518
150	0x3dee8c03	0.11647799
151	0xbda2cec4	-0.07949594
152	0x3de4ddf6	0.11175148
153	0xbbf1122a	-0.0073569017
154	0x3db10390	0.086432576
155	0xbd98555f	-0.07438158
156	0xbdcfda5a	-0.10149069
157	0xbe0522d7	-0.13001572
158	0x3c5c7c3e	0.013457356
159	0x3e196ed1	0.1498368
160	0xbd2f5f36	-0.04281541
161	0x3e1a590e	0.15073034
162	0x3d3e68d8	0.046486706
163	0x3c945380	0.018106222
164	0x3c27411b	0.010208393
165	0x3e1e7a2b	0.15476291
166	0x3ddf88bb	0.10914751
167	0xbdf1ac20	-0.11800408
168	0x3d5ae3c8	0.053439885
169	0xbd914377	-0.07092946
170	0x3e29012f	0.16504358
171	0x3e150ee2	0.14556459
172	0x3d84e878	0.064896524
173	0x3e1f61c3	0.15564637
174	0x3dc7ea6c	0.09761509
175	0xbdafc74f	-0.08582937
176	0xbdffb6c3	-0.12486031
177	0xbdb2de77	-0.08733838
178	0x3da0ea89	0.07857234
179	0x3de65442	0.1124654
180	0x3c9562e3	0.01823563
181	0xbdf62583	-0.120188735
182	0x3d775929	0.060387764
183	0x3e170ef5	0.147518
184	0x3d85b217	0.065281086
185	0x3caa23e0	0.02076906
186	0xbdcef148	-0.101046145
187	0xbdb73cfa	-0.08947177
188	0x3d58dd01	0.05294514
189	0x3dfe46c9	0.12415845
190	0xbd8626a4	-0.06550339
191	0x3db2b1cd	0.08725319
192	0xbe41faea	-0.18943372
193	0xbded9292	-0.11600222
194	0x3e02769a	0.12740555
195	0xbe125390	-0.14289689
196	0x3dcf268f	0.10114776
197	0x3e2e38c5	0.17013843
198	0x3da4c7cc	0.08045921
199	0xbdf1915c	-0.11795303
200	0x3d4bb67e	0.049734585
201	0x3e021d4d	0.1270649
202	0x3d51fbaf	0.051265415
203	0xbdf243bf	-0.11829328
204	0x3dd4af34	0.1038498
205	0x3dfee3fd	0.12445829
206	0x3dae4c46	0.08510642
207	0x3d305f58	0.043059677
208	0x3d9a6c8e	0.075402364
209	0x3db380d4	0.087648064
210	0xbd3a36c4	-0.045462385
211	0x3d72be86	0.05926373
212	0xbdfb558e	-0.12272178
213	0xbd898b41	-0.06716014
214	0x3d43af84	0.047774807
215	0x3d5c3665	0.053762812
216	0x3e18db02	0.14927295
217	0xbde414c5	-0.11136774
218	0x3c0efb87	0.008726961
219	0xbdccaf85	-0.09994415
220	0x3d941a33	0.072315596
221	0xbd0b945f	-0.034077045
222	0xbd936197	-0.07196348
223	0xbb903bff	-0.0044016833
224	0xbdb3a043	-0.08770802
225	0x3d8412be	0.06448887
226	0x3dbd5497	0.0924465
227	0x3dce2ea2	0.10067488
228	0x3d94fc00	0.07274628
229	0x3e309462	0.17244104
230	0xbdacc46b	-0.08435901
231	0xbd659349	-0.056048665
232	0xbd526821	-0.051368836
233	0xbe090b67	-0.13383256
234	0xbdb5f9a7	-0.08885508
235	0xbd50476a	-0.050849356
236	0x3d60c158	0.054871887
237	0xbd98985b	-0.074509345
238	0xbe23e965	-0.16007002
239	0x3e316b5d	0.17326112
240	0x3cbf94cb	0.02338638
241	0xbe0c3d42	-0.13695243
242	0x3e09f8d3	0.13473825
243	0x3dd7fe59	0.1054656
244	0x3e2938b3	0.16525535
245	0xbe016725	-0.12637003
246	0xbdd61d8d	-0.10454855
247	0x3df748fe	0.12074469
248	0xbdbd4988	-0.092425406
249	0xbd18c4e3	-0.03729714
250	0x3d5389e4	0.051645175
251	0xbd84746c	-0.06467518
252	0xbd3c9bc8	-0.046047002
253	0x3dd98563	0.106211446
254	0xbd8b8634	-0.068127066
255	0xbe00d794	-0.12582237

weight f4 [3, 512]
0	0xbd71289a	-0.05887661
1	0x3dbaf187	0.09128099
2	0x3da534ba	0.080666974
3	0xbdb740ed	-0.089479305
4	0xbd7f21ef	-0.06228822
5	0x3e1e1acc	0.1543991
6	0xbd740af4	-0.05958076
7	0xbd8ab995	-0.06773678
8	0xbd870fcc	-0.0659481
9	0x3e09d6fe	0.1346092
10	0x3c3f4d73	0.01167618
11	0x3e00d08b	0.12579553
12	0xbd5d2b2e	-0.053996257
13	0xbdb0af27	-0.08627158
14	0xbd83f2a3	-0.06442764
15	0xbd3ab551	-0.045583073
16	0x3d647f24	0.055785313
17	0xbdbafafc	-0.09129903
18	0xbd58f637	-0.052969184
19	0x3e01438a	0.1262342
20	0xbda966eb	-0.08271583
21	0xbdf27676	-0.11839001
22	0xbd817a37	-0.06322139
23	0x3db1c261	0.08679653
24	0xbdbdfe68	-0.0927704
25	0x3e27c0b1	0.163821
26	0xbd9ab888	-0.07554728
27	0x3d862d8d	0.06551657
28	0xbd274f5a	-0.04084716
29	0x3e3f2388	0.18665898
30	0x3d39ed24	0.04539217
31	0x3decef2b	0.11569055
32	0xbdc83e85	-0.0977755
33	0x3db8191d	0.08989165
34	0x3e0f4d65	0.13994367
35	0x3e23da01	0.1600113
36	0xbd40530c	-0.0469542
37	0xbd7442f8	-0.05963418
38	0x3e0839a3	0.13303237
39	0xbdd647d3	-0.10462918
40	0x3dab3f3a	0.08361669
41	0xbdc3ec52	-0.09566559
42	0x3df7f9d4	0.12108198
43	0xbd66c9d7	-0.056344833
44	0x3ccb056e	0.024782863
45	0x3db10fc8	0.08645588
46	0xbda2e33b	-0.07953497
47	0xbde0833d	-0.10962532
48	0x3dcc7387	0.099829726
49	0xbd5d7bf3	-0.054073285
50	0x3d914e27	0.070949845
51	0xbd25e810	-0.040504515
52	0xbdaf61bb	-0.085635625
53	0xbd2195fa	-0.03944967
54	0xbd0c0f1b	-0.034194093
55	0x3dbb407c	0.09143159
56	0x3dfd659b	0.12372895
57	0x3d9d7a4e	0.076893434
58	0xbd5e63ca	-0.054294385
59	0xbd8967cb	-0.0670925
60	0x3dc431a7	0.09579783
61	0xbdc28237	-0.09497493
62	0xbdbc6b0c	-0.09200105
63	0x3e1328a2	0.14370969
64	0x3e58e3ff	0.21180724
65	0xbdc913d3	-0.09818234
66	0xbdb69a74	-0.08916178
67	0x3dbfd5ad	0.09366927
68	0xbda305be	-0.079600796
69	0xbda15faf	-0.07879578
70	0xbdce4341	-0.100714214
71	0xbdb41ca8	-0.08794528
72	0xbd9507e1	-0.072768934
73	0x3d91ba1e	0.07115577
74	0x3d54adc8	0.051923543
75	0x3dbd125e	0.09232019
76	0xbdc3d5a3	-0.09562232
77	0xbd898c68	-0.067162335
78	0xbd94893e	-0.07252739
79	0x3e045db6	0.12926373
80	0x3dc32322	0.095281854
81	0xbda0eb77	-0.07857411
82	0xbd9d1a0b	-0.07670983
83	0xbdb4658c	-0.08808431
84	0xbdb7ceec	-0.08975014
85	0x3da3f3f7	0.08005517
86	0x3dbf7164	0.093477994
87	0x3d3b8622	0.045782216
88	0xbd5a11d3	-0.053239655
89	0xbdcfa2e8	-0.10138494
90	0xbd2e776d	-0.042594362
91	0x3da4ed34	0.080530554
92	0xbd22ec74	-0.03977628
93	0xbd8f7c43	-0.07006123
94	0xbd8491a4	-0.06473091
95	0xbdcdba87	-0.10045343
96	0xbd12967b	-0.03578804
97	0x3e115de0	0.14195967
98	0x3d20710d	0.039170314
99	0x3d95d933	0.07316818
100	0xbdb9b567	-0.09067803
101	0xbd94d0b4	-0.072663695
102	0x3e516b83	0.20451169
103	0x3d64f97b	0.055901986
104	0x3dc876eb	0.09788307
105	0xbd3f6c9c	-0.046734437
106	0x3e03d323	0.12873511
107	0x3dbcecda	0.09224863
108	0xbdb28cc5	-0.08718256
109	0xbd8b319c	-0.067965716
110	0x3e0c550a	0.13704315
111	0x3e147223	0.14496665
112	0x3dc3e1fd	0.09564588
113	0x3dacc395	0.08435742
114	0x3dc6f276	0.097142145
115	0x3d9c61c3	0.07635834
116	0x3db5f528	0.088846505
117	0xbd910003	-0.0708008
118	0x3dc9963c	0.09843108
119	0x3dbd7b8c	0.0925208
120	0xbdb5481f	-0.08851647
121	0xbdb4bb50	-0.088247895
122	0xbdabbeb8	-0.08385986
123	0x3e26ee4a	0.16301838
124	0xbdae0394	-0.08496776
125	0xbda43179	-0.08017249
126	0xbdc2eb9c	-0.09517595
127	0x3d2bb0b4	0.041916564
128	0x3e2bb5d7	0.16768585
129	0xbd8275de	-0.06370138
130	0xbd9e52d9	-0.07730646
131	0xbd4636e9	-0.04839221
132	0x3e0d1f33	0.13781433
133	0xbd8bea58	-0.06831807
134	0x3de52214	0.111881405
135	0xbd8cd6c1	-0.068768986
136	0x3dc4794b	0.09593447
137	0xbd5c1e5d	-0.053739894
138	0xbdbf78ce	-0.093492135
139	0xbd8f09b3	-0.06984272
140	0xbde5454a	-0.111948565
141	0xbd7bb5bc	-0.061452612
142	0xbd964c6c	-0.07338795
143	0xbcf5d42e	-0.030008402
144	0xbd696ca3	-0.05698837
145	0xbdcd6f2d	-0.10030971
146	0xbdbf9c0f	-0.09355938
147	0x3debd43e	0.11515091
148	0xbda73093	-0.08163562
149	0xbda2ae12	-0.079433575
150	0xbdb97fbe	-0.09057568
151	0x3cbb87a6	0.02289183
152	0xbda8469b	-0.08216592
153	0x3d18dc52	0.03731949
154	0xbdbb4656	-0.09144275
155	0x3db9fe7a	0.09081741
156	0x3df0bfa1	0.117553
157	0x3dd148a7	0.102189355
158	0x3dd06241	0.101749904
159	0xbdb47f13	-0.088133
160	0x3d84dd2a	0.06487496
161	0xbd86dfa6	-0.06585626
162	0xbdb3c0e7	-0.087770276
163	0x3df29937	0.1184563
164	0x3db7ac14	0.08968368
165	0xbd7cb513	-0.061696123
166	0xbdc626e9	-0.0967539
167	0x3d07633b	0.033053618
168	0xbdaecc9a	-0.085351184
169	0x3dfd0030	0.123535514
170	0xbd66711f	-0.056260224
171	0xbda6c227	-0.081425
172	0xbdbb2efa	-0.091398194
173	0xbda25414	-0.07926193
174	0xbd14028c	-0.03613524
175	0x3e804c43	0.25058183
176	0x3dbccb6e	0.09218489
177	0x3d554fdc	0.052078113
178	0xbdbcdb6a	-0.092215374
179	0xbd95cd11	-0.07314504
180	0xbc217a7f	-0.0098558655
181	0x3e3f27ff	0.18667601
182	0xbd95ab49	-0.07308061
183	0xbd089e6e	-0.033354215
184	0xbdb4ad34	-0.088220984
185	0x3e00552a	0.12532488
186	0x3e66101a	0.2246708
187	0x3dab62cc	0.083684534
188	0xbdc93d6a	-0.09826167
189	0xbd8f62a8	-0.07001239
190	0x3d9edffc	0.077575654
191	0xbdd445db	-0.103648864
192	0x3dea7784	0.11448577
193	0x3db2772b	0.08714136
194	0xbdab9738	-0.08378452
195	0x3d60d035	0.05488606
196	0xbdd06073	-0.10174646
197	0xbd7da3c2	-0.06192375
198	0xbddad523	-0.10685184
199	0x3e5dcf00	0.21660995
200	0xbcecafc0	-0.028892398
201	0xbd55b65e	-0.052175872
202	0xbdb8d467	-0.090248875
203	0x3d34e990	0.044168055
204	0xbd94d26b	-0.072666965
205	0xbd241de8	-0.040067583
206	0xbdb672a3	-0.08908584
207	0xbdbb4b6d	-0.09145246
208	0xbdcc06d6	-0.09962241
209	0xbd294c2c	-0.04133241
210	0x3ce0418d	0.027375007
211	0x3e2dff22	0.16991857
212	0x3d90f862	0.07078625
213	0x3d987808	0.07444769
214	0xbda5d44c	-0.08097133
215	0xbd4f71cf	-0.050645646
216	0xbd5aeeae	-0.05345028
217	0x3d41ed2f	0.047345337
218	0x3ddd4149	0.10803468
219	0x3d2f4439	0.04278967
220	0xbdc37ba1	-0.09545065
221	0x3db9970b	0.09062012
222	0x3e2a20c1	0.16614057
223	0x3e4f4ce8	0.20244181
224	0x3e18ea55	0.1493314
225	0xbda71252	-0.08157791
226	0xbdd0dc5c	-0.1019828
227	0xbd228068	-0.03967324
228	0xbdb19d38	-0.08672565
229	0xbd95441d	-0.07288382
230	0x3da9b517	0.08286493
231	0x3dce8a52	0.10084976
232	0x3e15e0c2	0.1463652
233	0x3d5d48ec	0.05402462
234	0x3db6635b	0.08905669
235	0x3dbccc92	0.09218706
236	0xbdc6cb4b	-0.09706744
237	0x3de0b8e6	0.109727666
238	0x3d00025d	0.031252254
239	0xbd8ba97b	-0.06819435
240	0x3df13f64	0.11779669
241	0x3cebd548	0.028788224
242	0xbda1e898	-0.07905692
243	0xbdb33b42	-0.08751537
244	0xbd2191e0	-0.039445758
245	0x3dcbd6c6	0.09953074
246	0x3d2e5aa3	0.042566907
247	0xbde52459	-0.111885734
248	0x3dbce9b0	0.0922426
249	0x3da95979	0.08269019
250	0xbd11ea19	-0.035623644
251	0x3de6987a	0.11259551
252	0x3de1b69c	0.11021158
253	0xbd4f0f62	-0.05055178
254	0x3df1674d	0.11787281
255	0x3d1f4227	0.038881447

bias f4 [3]
0	0xbd48c9b0	-0.04902047
1	0xbd99e944	-0.07515195
2	0xbd77c2aa	-0.06048838
