DQN/policy_net_dueling_5000.pth (torch, 546624 bytes, 7 tensors)

weight f4 [256, 6]
000000 2f 1d 93 3e 56 b3 b0 be ca 27 83 3e b4 b4 4e be
       0.28733203 -0.34511822 0.25616294 -0.2018612
000010 74 b8 81 3e c2 8b 6a be 52 7c 91 3e 64 37 1f 3e
       0.2533604 -0.22904876 0.2841516 0.15548474
000020 ce 3a c7 3d f9 1a c4 bc 53 45 0b 3e 6c 00 fb 3d
       0.09728013 -0.023938643 0.13600664 0.1225594
000030 09 d7 a4 3e c8 42 ee 3c c0 00 b5 be 25 1f dc bd
       0.3219531 0.029084578 -0.35352135 -0.10748128
000040 3a 36 24 3e 1c 0d 3f 3e fa db a8 bd 15 fb 8b 3e
       0.16036311 0.18657345 -0.08245082 0.27339998
000050 6a 0b cc be 0a 89 8b be 83 6a 43 3e 2b 15 56 bd
       -0.39852458 -0.2725299 0.190836 -0.05226628
000060 82 84 2e be 9f 60 e3 be 2e 58 36 bd 78 5c a3 be
       -0.17042735 -0.44409654 -0.04451769 -0.31906486
000070 92 eb 31 3d 05 3e be be 21 91 0c be 1f 16 89 3d
       0.043437548 -0.37156692 -0.13727237 0.066936724
000080 8e 12 28 3e 1a ab b0 bd 77 e2 05 3f c7 d3 55 3e
       0.16413328 -0.08626385 0.5229868 0.20881568
000090 4f af 30 3e 5f 2c aa bc 4f b7 91 be 61 e3 56 be
       0.17254375 -0.02077311 -0.28460166 -0.20985176
0000a0 9b 3f 71 3e 14 09 78 be 78 cf e3 3d 63 a6 a0 3e
       0.2355942 -0.24222213 0.11123556 0.31376943
0000b0 97 a5 0f be 18 09 72 be 01 09 44 3e 7f 58 b3 3e
       -0.14028011 -0.23636281 0.1914406 0.35028455
0000c0 66 c6 8d be 96 5b 9a 3e 85 d6 7d be aa 75 15 3e
       -0.27690428 0.30148 -0.24788864 0.14595667
0000d0 26 c5 c5 be 4b 08 9b 3e d5 63 49 bd 0f 77 b5 3d
       -0.38626975 0.30279765 -0.049167473 0.08860599
0000e0 3e 6a 43 be e8 71 da bd a2 40 c9 bc 87 11 d1 be
       -0.19083497 -0.10666257 -0.024566952 -0.40833685
0000f0 9b 1c be 3e e8 68 8b be 25 c6 d1 3d 3b 38 42 3e
       0.371312 -0.27228475 0.10242871 0.18966763
000100 e8 c3 73 3e e1 20 96 be 66 b7 4f 3e cd 2b bf 3e
       0.23805201 -0.2932196 0.20284805 0.37338105
000110 4f 9a df 3a 72 48 a4 3e 33 43 c4 bd 34 18 4c 3e
       0.0017059537 0.3208652 -0.0958313 0.19931108
000120 02 fe cd 3e b9 53 9a be 1d 84 94 3e bc ae 8d 3d
       0.40232855 -0.30142 0.29007044 0.069180936
000130 0f 5d 1c 3e 90 b6 d6 bc aa f2 9c be dc 21 56 be
       0.15269874 -0.0262101 -0.30653888 -0.20911354
000140 a2 46 ac be 66 85 8f bb b9 c0 17 3c 6d f0 90 3c
       -0.3364764 -0.004379916 0.009262257 0.017692769
000150 7d f7 86 be f2 90 69 3e 1a 63 8a 3d 30 9d 9c 3e
       -0.26360694 0.22809198 0.067571834 0.30588675
000160 0c 0e 23 3d 59 8c 34 3e e2 f3 ea bd b6 79 4b be
       0.039808318 0.17631663 -0.11472298 -0.19870648
000170 3a 94 9b be 9a 73 44 3c 57 ec 48 3d d8 a7 96 be
       -0.30386525 0.011990452 0.049053516 -0.2942493
000180 e0 cc 8f 3d c7 3d ba 3e 41 cd 9b 3e 93 cb df bd
       0.07021499 0.36375257 0.30430034 -0.109275006
000190 7f bc ad 3e 68 bc b0 be 55 5c d8 3e 9c b0 4a 3e
       0.33932874 -0.34518743 0.42257944 0.19793934
0001a0 9d ae 52 3e 25 fe be be 13 5a 83 bd 04 01 b8 be
       0.20574422 -0.37303272 -0.06413665 -0.35938275
0001b0 08 e9 23 be 0c c3 9e be 43 c1 7e 3e 08 b0 8e 3e
       -0.16006863 -0.31008184 0.24878411 0.27868676
0001c0 36 1b b9 be f9 6b 96 3e 20 54 6f be 92 0f f9 3d
       -0.36153573 0.29379252 -0.23371935 0.12161173
0001d0 d2 0c 82 3e df 72 bc 3e 04 c1 a5 3d f5 8a 2b 3d
       0.25400406 0.3680639 0.080934554 0.041880567
0001e0 9f 9e a3 3e 66 b2 bd 3e 88 d9 db be 3a 87 d8 3e
       0.31956956 0.3705017 -0.429394 0.4229067
0001f0 b7 b8 30 be 8d 68 9a bd 8d c6 48 3e a9 dd a3 3e
       -0.17257963 -0.07539473 0.19606991 0.3200505
000200 55 de a9 3d 70 ed 42 bd e0 36 82 be be cb c4 3c
       0.082943596 -0.04758972 -0.2543249 0.024022933
000210 ec ca e6 3e c9 a8 3f bd 12 ab b7 bc 17 ba b3 be
       0.45076692 -0.046791825 -0.02242044 -0.35102913
000220 e4 78 13 be b8 f7 4f bc c4 40 a4 be 72 e2 2a be
       -0.14401585 -0.012693338 -0.32080662 -0.16687945
000230 8c b3 8d 3e bf 7d 8b 3e b9 78 3c be b1 d0 be 3d
       0.27676046 0.27244374 -0.18405427 0.093171485
000240 92 7f bc bc c2 89 18 be 6f 49 8f be fe 29 61 3e
       -0.023010049 -0.148963 -0.27985713 0.21988675
000250 5a 22 9d bd 83 f7 91 3e 4f 38 c8 bd 01 f0 69 3e
       -0.07672568 0.2850915 -0.09776365 0.2284546
000260 90 28 8f 3e 3f 7c b9 3e b2 a1 96 3c 2a 23 43 be
       0.27960634 0.36227605 0.01838765 -0.19056383
000270 a2 58 da be 1a e2 09 3e de 0a bd be 3f 37 81 3d
       -0.42645746 0.13465157 -0.36922354 0.063093655
000280 d1 5a 38 3d 84 c8 0b be 8f 26 00 3d 6b 36 f1 bd
       0.045008484 -0.1365071 0.031286772 -0.117779575
000290 bf 9a 96 be 6e 73 a3 3e 67 12 05 be 76 d1 37 3e
       -0.29414937 0.31924003 -0.12995301 0.17950997
0002a0 be 0b bd 3e 32 15 d1 be cb ee 1a be d5 a2 c0 3e
       0.3692302 -0.40836483 -0.15130155 0.3762423
0002b0 ae 47 76 3e f8 70 66 3e 49 5f a4 be d7 ef b3 bd
       0.24050781 0.22504032 -0.32103947 -0.0878598
0002c0 fd b2 9e 3d dd 2d 26 be 55 35 5c 3e 6c 1d 75 bd
       0.07748983 -0.16228433 0.2150472 -0.059842512
0002d0 50 11 99 3e de a5 62 3e 47 fb df 3e 84 84 fb bd
       0.2989602 0.22133586 0.43746397 -0.12281135
0002e0 9b 7b 51 3e 55 46 fa 3d 13 94 07 be e4 a0 3c 3d
       0.20457308 0.12220446 -0.1324008 0.046051875
0002f0 f2 6d 22 3e 63 6a 1d bd 5e 14 46 be be 87 bf 3d
       0.15862253 -0.038431536 -0.19343707 0.09352063
000300 c9 15 90 3e 01 bd be be 4c 3b 78 3e 7b c3 46 bb
       0.2814162 -0.37253574 0.2424137 -0.0030328918
000310 7b 7b 83 3e 1f a2 83 be c1 df c2 bd d2 f9 67 3e
       0.25680146 -0.25709626 -0.09515334 0.22653893
000320 ef 7c 95 bb 45 53 4c be ed da a2 bd f8 f2 ac 3e
       -0.0045620124 -0.1995364 -0.07951913 0.3377912
000330 b5 be bd 3e 99 f1 e7 3e ab ea 78 be 40 c5 87 3e
       0.3705956 0.45301512 -0.24308269 0.26517677
000340 79 91 b8 be c0 57 89 be 8d 3d 50 3d 26 e0 81 be
       -0.36048487 -0.2682476 0.05083995 -0.25366324
000350 22 2b ba 3d 0d 38 cf 3e 47 38 47 be e6 f9 d2 bd
       0.09090258 0.4047245 -0.19455062 -0.103015706
000360 ef 55 f0 bd 4e fd 3a bd 1b 5f cd be 0e 4f 8a be
       -0.117351405 -0.045651726 -0.40111622 -0.2701344
000370 36 e2 92 3e f1 07 c2 3e 81 0b 8a 3e 94 73 31 be
       0.2868821 0.37896684 0.26961902 -0.17329246
000380 70 71 f4 3d bf 71 86 3d 35 98 3a be 11 d6 19 bd
       0.11935699 0.06564664 -0.18222125 -0.037557665
000390 0b 8e 06 bf 48 89 30 be d6 7c a9 be ca 94 68 3e
       -0.5256049 -0.17239869 -0.33103055 0.22713009
0003a0 de 50 58 bc 5e 41 5d bc e4 e3 08 be c5 6c bc 3e
       -0.013202874 -0.013504354 -0.13368183 0.36801735
0003b0 93 21 91 be 20 dd 1c bd 77 69 a6 3e a9 48 85 3e
       -0.28345928 -0.03829682 0.32502338 0.26031998
0003c0 a2 37 92 3e 8a de b2 3c 9a 8d 2e 3d 1a 2f 90 3e
       0.2855807 0.02183463 0.04261551 0.28160936
0003d0 fe 20 fe bd a6 16 6a 3e 61 7f bd bc eb 06 a5 be
       -0.124086365 0.22860202 -0.023132028 -0.3223184
0003e0 a5 42 84 be e2 06 86 3c 2c c0 0a be bd de 1f 3e
       -0.25832096 0.016360704 -0.1354987 0.15612312
0003f0 46 e9 4b 3e 04 fb cb be 64 9c 94 3e 79 84 78 be
       0.19913206 -0.39839947 0.29025567 -0.24269284

bias f4 [256]
000000 e1 4c 97 bb 30 dc e5 3e 56 cf ab 3e 67 da fb 3d
       -0.004617319 0.44894552 0.33556622 0.12297516
000010 2c 78 d5 be 14 62 86 bd 50 f1 03 be 0f 3c 88 3e
       -0.41693246 -0.06561676 -0.12885022 0.2660832
000020 6e c7 4a be ec a6 86 be e4 ea 1f be 07 ee c0 3d
       -0.19802639 -0.26299226 -0.15616947 0.094204
000030 27 f6 e5 3e 1d 40 56 3e bb fb ac bd 33 b9 db 3e
       0.44914362 0.20922895 -0.08446451 0.42914733
000040 68 8f 84 3c 17 f9 aa be e6 51 4c be cc a3 8b 3e
       0.016181663 -0.33393165 -0.19953117 0.27273405
000050 eb 52 07 be 96 3b 82 be 44 0d fb bd 51 b7 06 be
       -0.13215224 -0.25436085 -0.122583896 -0.13155867
000060 2b 8b e4 bd 7d a5 c7 be 1d b5 77 be 36 52 72 be
       -0.11159357 -0.38993445 -0.24190183 -0.23664173
000070 16 c0 b9 3e b6 60 f5 3e 30 50 22 be 5d 2c bc be
       0.36279362 0.47925347 -0.15850902 -0.36752596
000080 66 49 a6 3e 3d 0e 6e be 94 db b5 bd 04 d5 01 3f
       0.32477874 -0.23247619 -0.08879772 0.5071566
000090 84 1b de be b8 a5 17 3f e7 ba 07 be 1f 0c a8 3e
       -0.43380368 0.5923724 -0.13254891 0.32821748
0000a0 67 b5 95 be a0 58 09 3f 91 33 88 bd b4 ed 4f 3e
       -0.29239962 0.53650856 -0.066504605 0.2030552
0000b0 88 21 fe bd 84 69 9d bc 33 0c 77 3e eb 53 ba 3e
       -0.12408739 -0.019215353 0.24125747 0.3639215
0000c0 fc 7a 44 be 9a 68 c3 3d 3a e9 1e be e8 16 ef be
       -0.1918754 0.095414355 -0.15518656 -0.46697164
0000d0 21 3c b1 3e 8f 5e da 3e e3 71 89 bc 4b 55 de 3c
       0.34616187 0.42650267 -0.016777938 0.02714028
0000e0 1f c3 c0 3e 43 01 d0 3e da d7 92 be 77 2f 5a 3e
       0.37648866 0.40625963 -0.28680307 0.21307169
0000f0 53 f6 ae bc 5b a4 25 3e 2e fa 12 3f e4 2e 66 3e
       -0.02135769 0.16175978 0.57412994 0.22478825
000100 ee 8a a7 bc 0d 2f 9d be 1d a3 ac be f1 a4 10 3f
       -0.020451989 -0.3069996 -0.33718196 0.5650168
000110 ec 0e 93 be 79 22 8f 3e b3 4f 5e 3d 0e a6 2e 3e
       -0.28722322 0.27955988 0.054275226 0.17055532
000120 90 8e bf 3e fd 31 81 be b2 f6 25 3e 59 94 a6 be
       0.37413454 -0.2523345 0.16207388 -0.32535055
000130 6c 6a 03 3f e3 e8 b1 3e 28 ff 98 3e 71 16 d5 be
       0.5133426 0.3474799 0.2988217 -0.41618684
000140 17 4e 73 be ab ed 38 3e 4b 3f 43 3d 83 e1 24 3d
       -0.23760258 0.18059413 0.047667783 0.040254127
000150 f2 9c 62 be b9 5e b9 3d af ba e4 3e c2 09 71 be
       -0.22130182 0.0905127 0.44673678 -0.23538879
000160 2a cc 28 3e 8d bb 88 be 14 ca e6 3e 6b 50 08 3f
       0.16484132 -0.2670559 0.45076048 0.5324771
000170 aa c7 e0 3e 02 74 86 3d 32 86 01 3f dd 75 3f 3e
       0.43902332 0.065650955 0.5059539 0.18697305
000180 9d b1 b2 3e 48 66 c4 3e 70 a8 db 3e b2 c7 b6 3e
       0.34901133 0.38359284 0.42901945 0.3569923
000190 af 75 ad be b4 3e bf 3d d6 34 6a bd 4a 15 ed bd
       -0.33878848 0.093381315 -0.057179295 -0.11576326
0001a0 10 48 ce 3d 0b 2f 04 3f 26 93 5c be 9f 0b b7 be
       0.100723386 0.5163428 -0.21540508 -0.35751054
0001b0 b4 24 9d be 33 a7 73 be 72 88 d1 be 45 39 55 3d
       -0.30692065 -0.2379425 -0.40924412 0.05205657
0001c0 9a 19 26 be 2b 3a 2f 3e 7f 2d ca bc 7b a5 96 3e
       -0.16220704 0.17112033 -0.024679897 0.29423127
0001d0 43 0a af be 90 a9 77 3d 9e a8 0b 3b 74 9c e5 3e
       -0.34187517 0.06046444 0.002131022 0.44845927
0001e0 7f ce b6 3d 1c 3a c2 3e 13 96 9a be c7 bf bc 3e
       0.08926105 0.3793496 -0.30192623 0.36865065
0001f0 99 43 b2 3e bb da 96 be 15 ee 66 3b 8a 56 d0 3e
       0.34817198 -0.29463753 0.0035237123 0.40691024
000200 16 97 87 be 91 8e e8 3e ef 0b 40 bd aa 52 19 3f
       -0.26482457 0.4542127 -0.04688638 0.5989176
000210 8a cb da be 7c 5e 92 3e a6 8d a5 be 37 ff fc 3e
       -0.42733413 0.2858771 -0.32334632 0.49413463
000220 66 c0 6a 3e 09 f6 a3 3e 87 07 5f be a6 25 b4 3e
       0.22924957 0.32023647 -0.21780215 0.35184973
000230 22 98 3d bd 88 a1 d7 bc 88 af d2 3e cd 47 ad 3e
       -0.046287663 -0.026322141 0.41149545 0.33843842
000240 6f 9c 8d be 5e fc c7 3e 57 e0 b0 be 62 4f 5c 3d
       -0.27658412 0.39059728 -0.34546158 0.053786643
000250 8f b8 d5 be 13 2f 64 3e 9d 18 d2 3e 06 2e 7c be
       -0.4174237 0.22283582 0.41034403 -0.24626932
000260 50 84 d1 3e 1f 2c b9 3d dd da a6 3e 4f 4c 41 3e
       0.4092126 0.090416186 0.32588854 0.18876766
000270 97 52 6c 3e 9f b1 96 be 5a 0c ca be 94 47 7b 3e
       0.2307838 -0.2943239 -0.39462548 0.24539024
000280 32 d8 15 be c7 9c 67 be 25 f6 ab 3e 5c f9 83 bc
       -0.14633253 -0.226184 0.3358623 -0.016110115
000290 61 3e db 3c bc 8a bf 3e b6 73 11 3e 6f b6 78 3e
       0.026763143 0.37410533 0.14204296 0.24288343
0002a0 f8 93 ed 3e 6a 77 08 3e 57 b5 c0 3e e5 ee 02 3f
       0.46401954 0.13326803 0.3763835 0.51145774
0002b0 78 c2 6f be da bb 08 3f 83 db 91 3e 33 51 8e 3d
       -0.23414028 0.5341164 0.28487787 0.06949081
0002c0 8b 78 77 3e db 69 6b 3b ac d5 2e 3d 84 d1 02 bd
       0.24167077 0.003592125 0.042684242 -0.03193809
0002d0 28 3c 5e bd 2f 11 00 3c 2b ee e9 bd 53 78 9e be
       -0.05425659 0.007816597 -0.1142238 -0.30951175
0002e0 f7 41 c0 3e dc aa 82 be 19 91 57 3e ce 6b cc 3d
       0.37550327 -0.2552098 0.21051444 0.099814996
0002f0 a2 35 3d 3f cd 90 bc 3e 5e 1c 03 be 4f ef f7 3e
       0.7390996 0.36829224 -0.1280379 0.48424765
000300 b5 0d d3 be 26 3c 20 3f 43 c4 ea 3e fd 8f 00 bf
       -0.41221395 0.6259178 0.4585286 -0.5021971
000310 94 43 17 3e e4 7b 17 3e 0e 96 89 3d f0 c0 58 be
       0.14771873 0.14793354 0.06718074 -0.2116735
000320 94 f7 be 3e 3a 5c e8 3e 96 51 e3 3d 68 58 17 be
       0.37298262 0.45382863 0.11099546 -0.14779818
000330 b1 d3 15 3f c1 1f 71 be ec 06 95 3e bf 8b e1 3e
       0.5852614 -0.2354727 0.29106843 0.4405193
000340 dd fc dd 3d 02 52 29 3d 41 66 8d 3b 55 02 be 3b
       0.108392455 0.041337974 0.004315168 0.005798618
000350 31 18 8c be a8 49 9d bc 6a db 78 3e ef b5 82 be
       -0.27362207 -0.019200161 0.2430245 -0.2552943
000360 89 03 c4 bd aa 62 bc 3e b6 95 b2 3e ed d7 3f bd
       -0.09570987 0.36794025 0.34879845 -0.046836782
000370 50 ad bf 3e 7f 1e c8 bd 4c f1 88 be 61 cb 2c 3e
       0.37436914 -0.09771442 -0.26746595 0.16874458
000380 d8 76 e8 3c 33 c4 41 be 40 16 b5 be ef 95 a8 3e
       0.028376982 -0.189225 -0.35368538 0.3292689
000390 92 07 b4 bd c0 54 c4 bd 25 86 c6 3e 1e 6e ef 3e
       -0.087905064 -0.09586477 0.3877422 0.467637
0003a0 ef dc 81 3e 32 91 8c be 0c cf 5f bd 6b ed 9f be
       0.2536387 -0.27454525 -0.054640815 -0.31235823
0003b0 a7 c4 d9 3e 14 3a f2 3e 28 99 8d be bd 92 32 be
       0.42532846 0.47309935 -0.2765591 -0.17438789
0003c0 fc a5 76 3c ef db a2 3e 45 e6 c4 3e 61 6c 38 be
       0.015054222 0.3180842 0.38456932 -0.18010093
0003d0 2a ca 28 3d 48 59 0c be d8 07 09 3e 73 0d 0e 3f
       0.041208424 -0.13705933 0.13381898 0.5548927
0003e0 d2 8c 50 be eb 55 da 3e 9a d2 2d 3f 05 92 ff 3d
       -0.20366219 0.42643675 0.6789948 0.12479023
0003f0 4b a2 99 3e c6 63 23 3f 2a 7f c1 3e ae e6 a6 3e
       0.30006632 0.6382412 0.3779233 0.3259787

weight f4 [512, 256]
000000 8f 7a 28 bd 3d f5 0a 3d 61 39 0c bd d9 7e 28 bd
       -0.041132506 0.033925284 -0.03423441 -0.041136596
000010 b0 9f a5 3d 06 6b db 3a 9a 7a 5a 3d 15 74 e1 bc
       0.080870986 0.001674027 0.05333958 -0.027521173
000020 45 eb e5 bc db 80 0f 3d 10 13 08 bd 29 c6 ae bc
       -0.028066287 0.035034996 -0.033221304 -0.021334725
000030 88 5b b2 3c 6b 8f 22 bc 33 13 19 bc 9b 4a 4f 3c
       0.021772161 -0.009921889 -0.009342956 0.012652065
000040 ba 01 ad 3c e6 9d 2a 3d 08 5a 48 bd d6 d4 7b bd
       0.021118987 0.04165449 -0.048913985 -0.061482273
000050 61 11 2f 3c 96 50 5e bc 81 d7 29 3d af 00 54 bc
       0.010685296 -0.013569018 0.041465286 -0.012939616
000060 2f 7d 83 bc 3e 7e 6a 3d df ef 19 3b f1 0b 46 bb
       -0.016050903 0.0572493 0.0023488922 -0.003021952
000070 46 8a 32 bb 30 7b fb bb d1 b0 8d bc bd 5c 9d 3d
       -0.0027243062 -0.007674597 -0.017296227 0.07683704
000080 0d b0 a6 3c 5d 6e 3d bd 6d f7 cf 3c f4 bd 50 bd
       0.02034762 -0.04624783 0.025386536 -0.050962403
000090 41 d0 39 3d a5 3a dd ba 63 9d f0 bd 9b 12 ef 3c
       0.045364622 -0.0016878439 -0.11748769 0.029183676
0000a0 b8 a4 fe bb 19 f4 da 3c 4f 23 25 3d a0 e9 23 3c
       -0.007771101 0.026727723 0.040316876 0.010004431
0000b0 fe 1d 0f bd 8a 14 75 bc 66 a1 6d bd 08 89 aa bd
       -0.034940712 -0.01495851 -0.05801525 -0.08326918
0000c0 7f 7b 79 3d e1 0c de 3c 02 af 3d bd e1 af 8f 3c
       0.06090879 0.02710575 -0.04630948 0.01753992
0000d0 32 2b 50 bd e2 45 0e 3d 7d 73 95 3c 96 0f 56 3c
       -0.050822444 0.034734614 0.018243546 0.013065239
0000e0 6a 08 3a bc d5 8e e1 3c f4 b9 16 3d b2 7d 7b bd
       -0.011354545 0.027533928 0.036798432 -0.06139917
0000f0 eb 21 6a bd 47 1c 56 3a 33 a1 e1 3c f1 3e 0e bd
       -0.057161253 0.0008167666 0.027542686 -0.034727994
000100 05 df 4b 3d 54 61 d6 bb a4 38 ba bc c3 36 13 bd
       0.049773235 -0.006542364 -0.022732086 -0.035940897
000110 cd c5 3a 3b dc 07 0d bd 55 ba 3f bd 32 2d 8f ba
       0.0028499246 -0.034431323 -0.04680856 -0.0010923503
000120 e2 9e 41 bd 57 b0 bf bc 5d 3a 56 bc 9b 29 0d 3d
       -0.047270663 -0.023399515 -0.013075438 0.034463506
000130 e5 63 da 3c 05 97 d5 bb 85 c7 48 3c ed e0 df bc
       0.026658962 -0.006518247 0.0122546 -0.027328933
000140 6b 64 34 bc 5f 84 bb 3b 7d 1f 38 bb 3e 81 0b 3d
       -0.01101027 0.005722567 -0.002809494 0.0340588
000150 b5 3b a1 3d ea 2a c9 bc 3c fd a5 bd 8b 56 f4 3c
       0.07872716 -0.024556596 -0.08104941 0.029826423
000160 ce 14 1d bd 8d 72 95 3c 25 13 68 bd 63 2b 08 bd
       -0.03834992 0.018243099 -0.056658883 -0.0332445
000170 4e 50 80 3c bc 87 3b 3d fa 4a 19 bd 3c b7 c2 bd
       0.015663292 0.045783743 -0.03742502 -0.095076054
000180 e0 5f f7 bc 93 f3 cb 3b 8f cf eb ba 49 e3 f4 bc
       -0.030197084 0.0062241047 -0.0017990934 -0.029893534
000190 5b b7 fd 3c df 9c d3 bc 66 e0 03 3d 66 ab 12 bc
       0.03097122 -0.025831638 0.032196425 -0.008951997
0001a0 40 e3 11 bc 9f ee 29 3b f1 7f 3d 3d 5d f9 28 bd
       -0.008904278 0.0025929583 0.046264593 -0.041253436
0001b0 c4 44 18 3b 89 e8 d3 3c 17 0a 0b bc fc ff 3e bc
       0.0023234347 0.025867717 -0.008486292 -0.011657711
0001c0 0e 3c 5b 3d 2a cc 71 bd 53 c6 27 bd 0b 04 81 3b
       0.05352407 -0.059032597 -0.04096062 0.0039372495
0001d0 1c aa 99 3d 28 f2 29 bc 71 29 11 bd db 8d ab 3c
       0.07503149 -0.010372676 -0.035439912 0.020941665
0001e0 fe 21 84 bc 47 3d ad bc d2 dc 53 3d 4e e3 e1 bc
       -0.01612949 -0.021147383 0.051724263 -0.027574208
0001f0 44 00 80 bd e7 76 9f 3d 1d 33 d2 bc eb 99 28 bd
       -0.06250051 0.07786351 -0.025659138 -0.041162413
000200 57 5c cf 3c f9 5b 52 bd 55 95 fe 3c 70 64 7b bc
       0.025312586 -0.051357243 0.031077066 -0.01534377
000210 cc 7b 93 3d f6 0c e3 bb d7 20 a3 3b 29 5c 1b 3d
       0.07201347 -0.0069290353 0.00497828 0.037929688
000220 6a d1 95 bd 2d 9f 48 3c 26 ec 01 3d 09 77 40 bd
       -0.07315333 0.012244982 0.03171935 -0.04698852
000230 fe 82 8b 3d c7 7a ad bc df 7d 2e 3a f5 bc 62 bd
       0.06812094 -0.021176709 0.00066563295 -0.055355985
000240 d9 c6 2d bd 0b fe 33 bd 3c 15 3d bc 34 c7 e5 3b
       -0.042425964 -0.043943446 -0.011540707 0.0070122723
000250 0a 55 33 3d e5 47 ec bb 0c c2 81 bc 78 f7 48 bc
       0.04378227 -0.007210719 -0.0158396 -0.012266032
000260 35 ec 9f bc da 0a 95 3c ac ed 10 bd 53 32 4f bd
       -0.019521812 0.018193651 -0.03538291 -0.050585102
000270 d4 5e 4f bc 5a c0 b7 3d 3e 4e 17 3d 88 8f 87 bd
       -0.012656886 0.08972235 0.036939852 -0.06619173
000280 81 7b ce 3c 2c e6 92 3c d2 81 8a bd 6d 88 ed bb
       0.025205376 0.01793202 -0.067630425 -0.0072489292
000290 60 7d f9 bc f0 4f c3 3c 2a 8c 8c 3d 0c 09 bb bc
       -0.030455291 0.023841828 0.06862672 -0.022831462
0002a0 f2 4c 90 bd 80 e9 3f bd e5 97 bb 3c e2 fb 0d bd
       -0.07045926 -0.046853542 0.022899577 -0.034664042
0002b0 f3 c7 5f bd 41 4a e1 3c 3f 4b 39 bd 84 c4 09 3a
       -0.054634046 0.027501227 -0.045237776 0.00052554184
0002c0 4b a4 3d bd e9 be 9d 3c 0c 7c a6 bd 48 51 30 bd
       -0.04629926 0.019256072 -0.08129129 -0.043046266
0002d0 79 b5 92 3c e8 5e 9e bc 9f 8d 39 3d 74 66 5f 3d
       0.017908799 -0.019332364 0.045301076 0.054541066
0002e0 3f 32 9d bd be 4c 0d bd bc 42 ac bd e6 ba f1 bd
       -0.07675599 -0.034497015 -0.08411166 -0.11803226
0002f0 cf 91 bb bd 4a d5 71 bd 8f 67 c7 bb 60 da 51 bd
       -0.0915867 -0.0590413 -0.006085343 -0.05123365
000300 b3 62 e0 3c 40 5d 02 bb 82 d1 39 bd 32 4c b7 3b
       0.027390813 -0.0019892007 -0.045365818 0.0055938
000310 d1 0f db bc 56 5a ac 39 78 8d cb bd 21 68 c4 3c
       -0.02674094 0.00032873702 -0.099390924 0.023975434
000320 b4 96 69 bd 43 48 8c 3c 48 4e 79 bd a1 bb 86 bc
       -0.057028487 0.0171243 -0.06086567 -0.01644689
000330 03 ff 99 bd 6b b6 15 3d 12 93 c4 bd fe cb 42 bc
       -0.07519343 0.03655092 -0.09598364 -0.011889456
000340 27 aa 84 bd f6 81 09 bd 97 8a e4 bb 57 dd b6 bc
       -0.064777665 -0.033571206 -0.006974529 -0.02232234
000350 29 0f c2 bc dd 25 aa 3c fd 01 5f bd 1c 46 82 3a
       -0.02368887 0.020770008 -0.054445256 0.0009939107
000360 44 24 4f 3d eb f5 24 bd fc b6 48 39 6e 92 0f 3c
       0.050571695 -0.04027359 0.00019141653 0.008762939
000370 f6 60 23 bd f0 d0 00 3d 6d b8 30 bc 1f b7 a2 bc
       -0.03988739 0.03144926 -0.010786158 -0.01986271
000380 7d 42 72 bd bd 2b a7 bc 05 cd 1a bd 5a 7c a6 3c
       -0.05914544 -0.020406598 -0.037793178 0.020322967
000390 57 13 5c 3d a2 5d b0 3d 8e f2 9e bb 99 3f 0a bc
       0.05372938 0.08611609 -0.004850692 -0.008438014
0003a0 e7 08 c0 3c e0 8c 6c 3d 95 26 ff 3c c9 3b 00 3e
       0.023441745 0.057751536 0.031146327 0.12522806
0003b0 25 9b 61 3b cd 42 b8 3c e2 5f dc 3b 0b 6a 22 bc
       0.0034424749 0.02249279 0.0067252973 -0.009912978
0003c0 a5 c3 e7 3c 48 f0 19 bc ae 15 d6 bc 0c 79 a0 3c
       0.028291533 -0.009395666 -0.026133385 0.01958897
0003d0 e0 a8 cb bc 2a e6 3b 3d d0 59 db 3c c0 a7 9e bd
       -0.0248608 0.0458738 0.026776224 -0.077468395
0003e0 24 ca 8f bd 36 2d bf bc 32 25 e9 b8 3f de e3 bc
       -0.07020977 -0.023336988 -0.00011117234 -0.027815936
0003f0 52 54 a3 bc 99 86 6a bd 60 05 b1 bd ff a7 b1 bd
       -0.019937668 -0.05725727 -0.08643603 -0.08674621

bias f4 [512]
000000 ed 0e a2 bd d4 eb 27 be 42 96 08 3e 77 8f 1b 3e
       -0.07913003 -0.16398555 0.13338569 0.15191446
000010 97 9e e0 3d 55 90 b6 3d a0 2e 30 3e 0a 09 67 3d
       0.109677486 0.08914248 0.17205286 0.056405105
000020 5b 6e 9d bc b5 d8 e7 3d a3 4f d7 3d fc e0 e4 bd
       -0.01921766 0.113206305 0.105132364 -0.11175725
000030 a6 df de bc 34 b8 8c 3d bc 66 ab 3d 80 05 2a 3e
       -0.027206253 0.068710715 0.083692044 0.1660366
000040 e9 ce f9 3d 37 ab cb 3b 10 f8 29 3e 19 91 4c bc
       0.12197668 0.0062154788 0.16598535 -0.012485766
000050 4b 2a 78 bd a4 da 0b 3e 99 64 e0 3d 62 80 aa 3d
       -0.06058721 0.13657624 0.109566875 0.08325268
000060 fa 76 00 be 6d 9e 13 3e 87 a2 fe 3d b7 74 55 3d
       -0.12545386 0.14415903 0.124333434 0.05211326
000070 82 15 f1 3d 97 60 e3 3d 8c 92 b8 3d 37 f6 02 3e
       0.117716804 0.111024074 0.090123266 0.12789236
000080 6a 67 8a bd b0 be b0 3d dc 9a 10 3e 4b 30 d5 3d
       -0.06758006 0.08630121 0.14121574 0.10409602
000090 f1 1f 13 bd d6 3a 13 be 2a 9e e2 bd 81 75 17 be
       -0.035919134 -0.14377913 -0.11065324 -0.14790918
0000a0 6f 64 b0 3d 33 4f 2d 3e 03 39 9d 3d 1c b6 b1 bd
       0.08612906 0.16924743 0.0767689 -0.08677313
0000b0 0b d7 d9 3d 3b ca e9 3d 1a 50 a3 bd c2 f4 dc 3a
       0.10636719 0.114155255 -0.079742625 0.0016857611
0000c0 be b7 83 3d 18 84 39 bd d0 26 12 3e 57 11 10 3e
       0.064315304 -0.04529199 0.14272618 0.14069115
0000d0 01 0a 6b 3d 7a 17 20 3e 9c 28 98 bd 93 9d bf bd
       0.057382587 0.15633956 -0.074296206 -0.09356227
0000e0 6e 6a 65 3d c0 72 bb 3d be 63 3c 3d a1 cb b9 3d
       0.056009702 0.09152746 0.04599356 0.09072042
0000f0 dc be 2d bd 4e 4d b0 bd 4f fe dd bd fa b5 36 3d
       -0.042418346 -0.08608495 -0.10839521 0.04460714
000100 d8 3f ba 3b 2b 65 ad bd 05 5f 45 bd e8 2d 22 3e
       0.0056838803 -0.08466562 -0.04818632 0.15837824
000110 09 25 f9 bc a2 cb bd 3d 05 dd 08 3e 06 5e d2 3c
       -0.030413168 0.092673555 0.13365562 0.0256796
000120 ea 0f cf 3d 91 2f ee 3d d7 94 1c 3d ce 2e 0a be
       0.10110457 0.11630166 0.038227882 -0.13494417
000130 8f b9 ec bc dc 29 8c bd 69 f5 ca bc d5 6e b8 bc
       -0.028897075 -0.068439215 -0.024775224 -0.022513786
000140 c5 6c bf 3d 26 54 b3 3d 34 db a8 3d eb d1 19 3d
       0.09346918 0.087562844 0.08244935 0.03755371
000150 fd 5c 1e 3d a0 c5 e4 3d 9c c5 bd 3d db 17 a6 3d
       0.0386629 0.111705065 0.092662066 0.08110019
000160 8e fe b9 bc ff e2 0d 3e e6 03 bc bd b1 ff 0a 3e
       -0.022704389 0.13856123 -0.09180431 0.13574101
000170 75 85 95 3d 10 d6 83 bd 84 a7 fa bc a6 85 23 be
       0.073008455 -0.064373136 -0.030597456 -0.15968952
000180 70 76 c0 3d d8 f8 8c bd 78 57 01 3e 12 49 3b bd
       0.0939759 -0.06883401 0.12631023 -0.045723982
000190 74 79 f2 3d eb 45 9b 3d 0e 1d de 3d 98 88 fa 3c
       0.118395716 0.07581695 0.108453855 0.030582711
0001a0 a4 48 d8 3c f4 40 c0 3d ca d0 c0 bc b5 df 18 3e
       0.026401825 0.09387389 -0.023537058 0.14929087
0001b0 ad 56 5a 3d c2 d4 e8 3c b6 f3 14 3e 2d 30 06 3e
       0.053305317 0.028421763 0.14546093 0.13104315
0001c0 22 81 0d 3e 12 64 17 3d f9 da 9d bd e3 61 05 3e
       0.13818792 0.03696067 -0.07707781 0.13025622
0001d0 0a 89 f6 3d bf 62 9e 3d 14 73 04 be e1 35 b2 3d
       0.12037857 0.07733678 -0.12934524 0.08701683
0001e0 78 78 1b 3e 58 be a2 3d e4 ca 97 3c 43 5e 08 3e
       0.15182674 0.079464614 0.018529363 0.13317208
0001f0 bb 29 2b 3e fb 4b d1 3d db ef 51 bd 26 1d 0f 3e
       0.16715138 0.1021957 -0.051254135 0.13975963
000200 dc 18 29 3c ff f4 cb 3d 74 15 d8 3c f5 34 d4 3d
       0.010320868 0.09958839 0.026377417 0.10361663
000210 58 5b b2 3c 23 e2 2d 3e fa 20 e0 bd 63 65 d0 3d
       0.021772072 0.16980796 -0.1094379 0.10175588
000220 31 3d a9 bd 51 f3 28 bd 91 b0 14 bd 8c 64 2e bd
       -0.082636245 -0.04124767 -0.0363012 -0.042576358
000230 04 66 bf 3d 91 67 08 be bc b5 c1 bd d3 40 b0 3d
       0.0934563 -0.13320757 -0.09458491 0.08606114
000240 9e d5 11 3e 4d 9f ec bd 61 e1 b2 3d 3c ea 16 be
       0.14241645 -0.11553822 0.08734394 -0.14737791
000250 04 37 ad 3d ba b7 fe 3d 69 73 98 3d 67 7a 87 bd
       0.08457759 0.12437387 0.07443888 -0.06615143
000260 41 25 2b bd 2c ef 2c 3e 2f 36 68 bd f8 09 e1 bd
       -0.041783575 0.16888112 -0.0566923 -0.109882295
000270 52 3a f7 3d 3f 6f 62 3d dd f2 1b bd 16 69 ee 3d
       0.120716706 0.055281874 -0.03807341 0.11641137
000280 67 f0 c9 bd 7e da 31 3d 31 69 36 3e 52 47 df bd
       -0.09860306 0.04342126 0.17813565 -0.10902275
000290 43 1f 4a bd f9 7e a3 bd 3b a4 26 3e 0a 36 f7 bd
       -0.04934622 -0.079832025 0.16273586 -0.12070854
0002a0 99 7c 32 3e 9e 3d c8 bd 3d a8 d5 3d a3 a6 89 bd
       0.17430343 -0.097773775 0.104324795 -0.067212366
0002b0 21 82 b5 3d 75 44 7a 3d 89 6f b7 3c ea 04 ae 3d
       0.08862711 0.061100442 0.022392051 0.08497031
0002c0 3b ff c6 3c b8 70 74 bd 71 c0 88 bd 4e 76 e0 3d
       0.024291625 -0.05967781 -0.0667733 0.10960065
0002d0 87 ea 00 bd 52 30 e6 3d 3c 12 04 3e 2f 3b 8b 3d
       -0.031473663 0.11239685 0.12897581 0.06798398
0002e0 d1 8f b2 bd d3 26 4b 3c d7 00 3b bd 74 dc 8a 3d
       -0.08718837 0.012399393 -0.045655098 0.06780329
0002f0 de e8 b7 3d 64 97 39 3e 8f 76 b5 bd 38 1b ed 3d
       0.08979963 0.18124157 -0.08860504 0.11577457
000300 e4 7c c7 bd 24 a6 ff 3d a4 6c 4e 3d e4 d8 02 be
       -0.09740618 0.12482861 0.050396577 -0.1277805
000310 28 ae 04 3e a0 d4 4f bd 1a db 37 bc 22 8e 10 3e
       0.1295706 -0.050739884 -0.0112216715 0.1411672
000320 07 19 eb bd df ac 3b 3d db 07 0c bc 78 30 e0 bd
       -0.11479383 0.04581916 -0.008546795 -0.10946745
000330 bc fb a9 bd 3e 12 ec 3d ec b9 a7 3d 83 51 10 bd
       -0.08299968 0.11526917 0.08189759 -0.035233986
000340 3d ba b3 3d 91 23 ba bd 14 61 ff 3d 42 39 33 3e
       0.087757565 -0.09088815 0.12469688 0.17502311
000350 e7 8e 0a 3e 62 42 bd bd 27 b5 fd bc 59 4d 93 bd
       0.13531075 -0.09241177 -0.03097017 -0.07192487
000360 3a 5c 37 3e 7b 36 04 3e d6 ce 99 3b cd 7b 1b 3e
       0.17906275 0.12911408 0.004693846 0.15183945
000370 19 06 24 bd 38 d6 d9 bd c5 cf 03 3e 35 17 e4 bc
       -0.040044878 -0.10636562 0.12872227 -0.027843097
000380 c8 83 f0 3d 81 17 07 3d aa 72 2f be c7 08 28 3e
       0.11743885 0.0329814 -0.17133585 0.16409598
000390 9e c1 ba 3c d5 23 5b bd 73 71 7c bd cc 9e 8f bd
       0.022797402 -0.05350097 -0.06163163 -0.0701271
0003a0 18 82 c2 bd f3 89 d0 3c 95 5f 93 bd a3 85 ed 3d
       -0.0949747 0.025456404 -0.07195965 0.11597755
0003b0 58 69 df 3d 1a 19 18 be df cc b6 3d 87 69 1c 3e
       0.109087646 -0.14853325 0.08925795 0.1527463
0003c0 8d e3 87 bd a4 92 28 3d c0 99 ad 3c 36 97 37 3c
       -0.06635199 0.041155472 0.021191478 0.011205485
0003d0 65 61 2c bc 2d 98 0a be 09 d3 d1 3d 9f 4d f1 ba
       -0.010521268 -0.13534613 0.1024533 -0.0018409974
0003e0 bb 3b a4 3d d4 e3 12 3e 5a a2 00 be 14 02 69 bd
       0.08019205 0.14344722 -0.12561932 -0.056886747
0003f0 fc 99 1d 3d f8 07 1c bd 75 b8 28 3e 1a 80 d5 3d
       0.03847693 -0.038093537 0.16476615 0.10424824

weight f4 [1, 512]
000000 8a 03 a1 3d 36 36 9f 3d 21 89 a3 bd 37 14 a8 bd
       0.07862003 0.07774012 -0.0798514 -0.08206981
000010 09 d6 ad bd bd 45 c4 bd d9 a5 ca bd 05 27 d5 bd
       -0.084880896 -0.09583614 -0.09894914 -0.10407833
000020 1c 49 08 3d 67 ef bd bd 8c 5d ad bd 6c 30 74 3e
       0.033272848 -0.09274178 -0.08465108 0.23846596
000030 30 24 b1 3d 26 05 a4 bd d1 0b a1 bd ca 18 a2 bd
       0.0864948 -0.080087945 -0.07863582 -0.079148844
000040 37 58 bb bd ed a5 f3 3d 0a 7a b1 bd 4d 9a 19 bc
       -0.09147685 0.11896882 -0.08665855 -0.009375167
000050 fc 31 2e 3e 22 59 cb bd 02 48 c9 bd 4b 49 d2 bd
       0.17011255 -0.0992911 -0.098281875 -0.10267886
000060 d9 a9 29 3e f0 0e b3 bd 0b 01 bd bd f2 ee cf bd
       0.16568698 -0.087430835 -0.092287146 -0.10152997
000070 73 07 c5 bd 90 ed d0 bd fa e0 b7 bd 6f dc ac bd
       -0.096205615 -0.102015615 -0.08978458 -0.08440482
000080 0b 46 85 3e 0c 11 d1 bd c0 b2 e5 bd ae 72 b1 bd
       0.2603 -0.102083296 -0.112157345 -0.086644515
000090 31 84 ab 3d dd 67 89 3d f7 f4 ab 3d 22 09 19 3e
       0.08374823 0.067092635 0.08396333 0.1494489
0000a0 4d 55 c0 bd 29 af ac bd ed ba a2 bd 3c 0e f8 3d
       -0.0939127 -0.08431847 -0.079458095 0.1211209
0000b0 b7 8a 89 bd dd b4 d4 bd e9 13 a5 3d f3 bf 15 3d
       -0.06715911 -0.103860594 0.08060438 0.03656001
0000c0 4f b0 c2 bd 73 ba ac 3d 1b f0 c1 bd 31 d9 9c bd
       -0.095062844 0.08434 -0.094696246 -0.076586135
0000d0 5c cd d2 bd dc 72 a0 bd 5b c8 4c 3e d9 48 46 3e
       -0.102930754 -0.07834408 0.19998305 0.19363727
0000e0 ba a0 b5 bd 4b 8b ad bd da fe c0 bd e7 af b8 bd
       -0.08868547 -0.08473834 -0.09423609 -0.09017926
0000f0 02 6f cc 3d fa e2 bb 3d 90 94 cd 3d c8 eb 15 3d
       0.099821106 0.09174152 0.10038102 0.03660181
000100 85 5d 90 3d bf be 95 3d b4 67 ef 3d e5 53 96 bd
       0.070490874 0.073117726 0.11689702 -0.0734022
000110 7d 91 1f 3d f0 fa c1 bd 47 b1 bd bd 27 b7 f4 3d
       0.038957108 -0.09471691 -0.092623286 0.11948996
000120 5e 5a 9b bd 12 d1 a9 bd 0a d5 9f 3c cb 5d e8 3d
       -0.075855955 -0.0829183 0.019510765 0.113460146
000130 3e 7e 11 3e cc f1 ad 3d 3b 17 3f 3e 79 a3 40 3d
       0.14208314 0.08493385 0.18661205 0.0470309
000140 97 fd d3 bd db e3 95 bd a0 3a ba bd 31 19 ce bd
       -0.10351103 -0.073188506 -0.09093213 -0.10063399
000150 d8 61 d2 bd 1c 1d 96 bd bb b5 ba bd 83 d5 bf bd
       -0.102725685 -0.07329771 -0.091166936 -0.09366896
000160 97 dc ab 3d 43 f7 b9 bd 70 e9 39 3e 10 e4 bb bd
       0.083916835 -0.090803646 0.18155456 -0.09174359
000170 7c e5 c0 bd 4e 38 62 3e 7f 8c 2a 3e c2 7a 58 3e
       -0.09418771 0.22091791 0.16655158 0.21140578
000180 41 0f da bd 75 6e d8 3d 67 5b bf bd 8f 80 0c 3d
       -0.10647441 0.10567943 -0.093436055 0.03430229
000190 5b e5 c3 bd 01 6f c9 bd ac bc dc bd 94 a0 0f 3e
       -0.095652305 -0.098356254 -0.10778174 0.140261
0001a0 41 77 36 3d f1 dd d0 bd d6 87 d8 3d 18 b2 cd bd
       0.044547323 -0.10198582 0.10572784 -0.10043734
0001b0 39 83 bf bd 9e 7b 8d 3d 9a bc c1 bd bf 42 8c bd
       -0.093512006 0.06908344 -0.09459801 -0.06848668
0001c0 5a 23 b6 bd dc 75 20 3c 27 c2 0c 3e fd 62 b7 bd
       -0.088934615 0.009793725 0.13745938 -0.089544274
0001d0 27 d1 a7 bd eb 61 9d bd b4 02 c9 3d 90 20 c0 bd
       -0.081941895 -0.07684692 0.09814969 -0.09381211
0001e0 2a 3a c1 bd 73 2d d9 bd 17 a8 1a 3e cc 5d b3 bd
       -0.09434922 -0.10604372 0.15103184 -0.08758125
0001f0 dc 55 8d bd b5 17 be bd 02 cc 1a 3e 51 a9 a7 bd
       -0.06901142 -0.092818655 0.15116885 -0.081865914
000200 1e 70 5c 3e 0e 53 c6 bd 12 7d ec 3d 14 8d d6 bd
       0.21527144 -0.0968381 0.11547293 -0.10476127
000210 88 d6 9a 3d e6 b5 a1 bd 8a 38 8b 3d 83 39 c8 bd
       0.0756045 -0.078960225 0.06797893 -0.097765945
000220 1f 5e 8b 3d 38 7d 2c 3e df 33 a8 3d 4b 5f dc 3d
       0.068050615 0.16844642 0.082130186 0.10760363
000230 60 59 aa bd c0 23 67 3e ca 9e 7d 3d 5c 4f a7 bd
       -0.08317828 0.22572231 0.06191901 -0.081694335
000240 7b a7 db bd 4b 63 c4 3d 00 e7 da bd c6 65 98 3e
       -0.10725304 0.09589251 -0.10688591 0.29765147
000250 fe c1 ce bd c0 fd b5 bd bf 49 d1 bd 0b 11 b7 3d
       -0.10095595 -0.088862896 -0.10219144 0.089387976
000260 f4 3c 8d 3d f4 4a bc bd b7 a8 d2 3d 75 26 dc 3d
       0.068963915 -0.09193984 0.10286086 0.107495226
000270 ff c2 b8 bd 4b 81 aa bd 39 01 c4 3d 82 02 99 bd
       -0.090215676 -0.08325442 0.09570546 -0.074711815
000280 18 99 2c 3e 1a 2e bd bd 6c b2 a5 bd 12 62 bc 3d
       0.16855276 -0.09237309 -0.08090672 0.09198393
000290 45 2a f2 3d 9c 9d 7f 3e 53 f8 bc bd 2e 34 8b 3e
       0.118244685 0.24962467 -0.092270516 0.27188247
0002a0 60 06 9e bd 87 a6 10 3e 1b 15 df bd f5 1a ad 3d
       -0.0771606 0.14126025 -0.108926974 0.08452407
0002b0 96 90 bc bd 6c e8 cf bd 88 a9 c9 3d a6 dc c7 bd
       -0.09207265 -0.10151753 0.09846789 -0.09758882
0002c0 ab 6f 04 3d 0b 2e d0 3d e2 7f cf 3d c6 7f 9b bd
       0.032333057 0.10165032 0.101318136 -0.0759273
0002d0 bc 84 14 3e e4 76 b9 bd 21 35 a0 bd 0d dc d8 bd
       0.14503759 -0.0905588 -0.078226335 -0.10588846
0002e0 7b af 84 3e 5b 3c 36 3d 1c b0 35 3e b5 36 bd bd
       0.2591513 0.044491153 0.17742962 -0.0923895
0002f0 9d ae d4 bd 9f b0 96 bd 38 77 2a 3e 02 fb c6 bd
       -0.10384867 -0.073579066 0.16647041 -0.09715845
000300 db 16 26 3e 02 a1 a2 bd 1e f6 cf bd f2 9a 84 3e
       0.16219656 -0.07940866 -0.10154365 0.25899464
000310 cd c1 ba bd 88 c6 df 3d bb 72 1a 3e d6 b6 b5 bd
       -0.09118996 0.10926539 0.15082829 -0.08872764
000320 66 37 95 3d 4f 88 b0 bd 9c 1a b7 3d 4c 5f 4a 3e
       0.07285957 -0.08619749 0.08940622 0.19762915
000330 f4 09 bf 3d 4e e9 bb bd bd 26 d8 bd 7a 7b 27 3e
       0.0932807 -0.09175359 -0.10554264 0.16355696
000340 e1 b6 c0 bd 15 69 17 3e 37 6f a7 bd 9e 8a 98 bd
       -0.094098814 0.1478618 -0.081755094 -0.07448314
000350 5a 5d b4 bd ab 9d 6d 3e 5b 59 4d 3e 1a 22 b9 3d
       -0.08806868 0.23204677 0.20053618 0.090397075
000360 df c8 9c bd 56 b3 c1 bd 39 77 bf 3d 96 9e 9a bd
       -0.076555006 -0.09458034 0.09348912 -0.07549779
000370 0a ca 01 3e 48 7d 24 3e 95 86 9b bd a4 46 b7 3d
       0.12674728 0.16063416 -0.07594029 0.089490205
000380 5a 80 ae bd 01 d8 c8 bd ef b6 65 3e 67 a8 af bd
       -0.08520575 -0.098068245 0.22433065 -0.08577042
000390 29 f2 b5 3c 28 fa 07 3e 58 46 f2 3d 0d a4 81 3e
       0.022210198 0.13279021 0.11829823 0.25320473
0003a0 76 8e e4 3d 19 16 32 3e db d8 84 3e 14 32 95 bd
       0.11159985 0.17391242 0.25946698 -0.07284942
0003b0 91 ae a5 bd c5 8b 23 3e ed fc b7 bd 6c d6 d5 bd
       -0.080899365 0.15971287 -0.08983789 -0.10441288
0003c0 7c fa 84 3e 0c 75 19 3e 2d 8c 8b 3d c9 fe 35 3c
       0.25972354 0.14986056 0.06813846 0.011108109
0003d0 f5 f3 0f 3e 3d 7c b5 3d da c8 db bd 3e 26 35 3e
       0.14057906 0.08861587 -0.10731669 0.1769037
0003e0 ad a4 b1 bd c4 b1 c0 bd de e8 11 3e f8 35 b6 3d
       -0.086739875 -0.09408906 0.14248988 0.088970125
0003f0 6c 67 18 3b f9 48 d7 3d 39 42 ca bd 35 43 9f bd
       0.0023255004 0.10511965 -0.09875912 -0.077764906

weight f4 [3, 512]
000000 21 4f 03 bd a7 88 63 bc 87 e2 18 bd a5 76 09 bc
       -0.032057885 -0.013887561 -0.03732541 -0.0083901035
000010 eb 9e 24 bd ff 19 b2 3c ac 7e c5 bc 13 1d f5 3b
       -0.04019062 0.021740912 -0.024108253 0.0074802726
000020 59 cf d5 bd 17 19 34 bc ad 34 17 bd b4 16 76 bd
       -0.10439939 -0.01099231 -0.03691547 -0.060080245
000030 7c a7 b6 3c 82 2e 05 bc 07 2e 4f bc 63 cc 1d 3d
       0.02229666 -0.008128764 -0.012645251 0.038524996
000040 e7 9d 45 3c 84 79 9b 3b 0a 0e 19 3d 08 b1 30 3e
       0.012061573 0.0047447104 0.037366904 0.17255032
000050 de ba 78 3c 9d f6 6f bc f4 5f 1a bd 6e 6d f2 bc
       0.015181271 -0.0146461995 -0.037689164 -0.029593196
000060 8c 3c 0c bb 65 ee 05 3d 30 3c 29 ba b4 e3 0c 3c
       -0.0021398393 0.032698054 -0.0006455807 0.0085992105
000070 48 d6 94 3c e0 6b b7 3c 13 40 90 bb 77 ec 13 bd
       0.018168584 0.022390306 -0.0044021695 -0.036114182
000080 b2 50 1d 3d 4a b0 75 bd 58 8c b9 3c 0d 79 bc bb
       0.038407035 -0.059982575 0.022649929 -0.005751735
000090 bd dd c6 bd 55 b3 31 3d 88 8e 71 3c ea 2d a1 3c
       -0.09710262 0.043383915 0.014743455 0.019675214
0000a0 76 f5 9b 3c ab 10 2a bd 3a 3c ee bc 78 31 0e bc
       0.019037943 -0.041519802 -0.029081453 -0.008678786
0000b0 e9 e4 21 3d e4 c6 f7 bb 42 16 1e bd 19 a4 de bd
       0.039524946 -0.0075615514 -0.038595445 -0.10871143
0000c0 c8 0c 1c bd 8f a1 f2 bb 4c 35 2b 3d 62 1e 85 bc
       -0.038098127 -0.007404513 0.041798875 -0.01624984
0000d0 73 ca 15 3d cd b8 a0 bb 77 40 c4 3b d4 49 1a 3d
       0.036570024 -0.0049048425 0.00598913 0.037668064
0000e0 bc e3 09 3d 2a df 2e bc f3 18 f1 bc 62 72 90 3c
       0.03366445 -0.010673324 -0.029430842 0.017632667
0000f0 94 7b 7c bc 46 a3 d5 3c 2e b6 6d bc 9b 6b 02 bd
       -0.015410323 0.026078831 -0.014508767 -0.0318409
000100 41 fc d2 bc 4a da 88 bd f2 0b bd 3c 8a aa cf bc
       -0.02575505 -0.0668226 0.023076985 -0.025349874
000110 6d c0 4c 3d 26 11 a1 bc 2b 7c 47 bc f6 0a 0d 3d
       0.0499882 -0.019661497 -0.0121756 0.03443428
000120 01 b3 8d 3c 78 f3 c9 3c 59 7f 74 3c fc b4 f5 3c
       0.01729727 0.024652228 0.01492294 0.029993527
000130 3f a4 d2 bc eb 81 1c bd eb b6 c9 bc a2 28 0a 3c
       -0.025713084 -0.038209837 -0.024623355 0.008432539
000140 bc 5b 30 3d f9 30 28 bd ed af e7 bb de b4 ef 3c
       0.043056235 -0.04106233 -0.0070705325 0.029261049
000150 66 29 aa bc 2d e6 df bc 6a 57 03 bc 2c 29 20 3a
       -0.020771693 -0.027331436 -0.008016447 0.0006109651
000160 2c 07 12 3b 91 19 e1 bc 92 90 4f ba b2 85 05 bd
       0.0022282107 -0.027478011 -0.0007917966 -0.032598205
000170 fc c7 03 bd d7 3e 30 bd 61 18 d5 3c 61 b7 ec ba
       -0.03217314 -0.04302868 0.026012601 -0.0018060022
000180 89 12 8e bc 07 33 0f 3c 11 3f c1 3c f9 14 90 bc
       -0.017342823 0.008740193 0.023589643 -0.017588126
000190 c0 1a 1c 3c 41 8c 33 bd 15 65 aa ba 74 36 3a 3d
       0.009527862 -0.04383493 -0.0013000095 0.045462087
0001a0 a1 72 05 bd a6 6b 14 3d 24 38 b0 bc bd 16 13 bc
       -0.03258002 0.036235474 -0.021511145 -0.008977589
0001b0 de b9 c5 3c 1f 6d f5 ba 5f 01 0f 3d a1 72 ef bb
       0.02413648 -0.0018724537 0.034913417 -0.007307366
0001c0 cf 1c a2 bb 87 50 62 bc ec 53 ab 3c ee 5b e2 bc
       -0.004947282 -0.0138131445 0.02091404 -0.027631726
0001d0 b3 0c 00 bc 3d 1b 2b 3d 13 a5 12 bd 17 8f ee 3c
       -0.007815528 0.041774023 -0.03580196 0.029120965
0001e0 c7 8a ca bc 59 98 b6 bc f2 e5 11 bd 18 c9 25 bd
       -0.024724377 -0.022289442 -0.035619684 -0.04047498
0001f0 bc f4 65 3c 21 15 37 bc 82 32 4b 3d 36 74 1d 3b
       0.0140354 -0.011174471 0.049608715 0.0024025566
000200 a5 82 d1 3c ef ed d8 3c 08 cf 11 bd c7 40 0e bd
       0.025574991 0.026480643 -0.03559783 -0.034729745
000210 11 cb c5 bc 3d 12 39 bd 16 45 23 3c 64 a4 ab 3b
       -0.024144681 -0.04518341 0.009965202 0.0052381027
000220 c9 39 2d bc 04 2f 77 bd 3a 8e 16 3d b4 02 8f 3c
       -0.010572859 -0.060347572 0.03675673 0.017457344
000230 59 9d 2c 3b 3c 9a fe bc b1 9f b5 3c 4e 7a 0e 3d
       0.0026338904 -0.031079404 0.022170873 0.034784608
000240 d1 fc 4c bb 49 5d 38 bd d2 86 f0 3c bb b4 7c bc
       -0.003127862 -0.04501084 0.029361162 -0.015423949
000250 b6 26 12 bc 6d a3 68 3c 2d c9 36 3c 95 eb 38 3c
       -0.008920362 0.01419912 0.0111563625 0.011286636
000260 2a fc 43 3c 04 5f 1b 3d 3a 54 92 bc 8a ff f4 bc
       0.011961976 0.03793241 -0.017862428 -0.029907007
000270 5b b7 f4 3c 7b 79 03 ba 4f 67 0e 3c 0b 39 81 3a
       0.029872587 -0.00050153554 0.008691623 0.0009858919
000280 23 05 1c 3d 6e ab 11 3d 17 d0 13 bd a3 b1 9d bc
       0.038090836 0.03556388 -0.03608712 -0.019249743
000290 91 72 68 3d b6 05 76 3b 2b 94 58 bc 9a a5 28 3d
       0.056749884 0.0037540025 -0.01321892 0.041173555
0002a0 74 66 10 bb 69 08 0c bd 95 42 65 3c 29 47 2b bd
       -0.0022033723 -0.034187708 0.013992925 -0.04181591
0002b0 87 ce 68 bc 8e 8e cb 3c 44 c7 94 3e 6a 46 4d 3c
       -0.014209396 0.024848249 0.29058278 0.012528995
0002c0 31 4d a6 3b 33 99 e1 bc ef 30 94 bc 06 27 9b 3c
       0.00507512 -0.027538871 -0.01808974 0.018939506
0002d0 b0 3b 8d bb 60 80 b4 bc 42 2a 08 3d 0e ad b1 bc
       -0.004310094 -0.02203387 0.033243425 -0.021688964
0002e0 30 66 cb bc 4e e6 c8 bd da 6a 98 3c 29 4b 4e 3c
       -0.024829 -0.09809552 0.018605638 0.012591162
0002f0 3e ec 96 bb 2b 5b e3 3c 61 af 30 3d 10 e4 ca bc
       -0.004605799 0.027753433 0.043136004 -0.024766952
000300 b6 f7 f6 3c 88 b2 4a 39 74 05 06 bd 78 0a 56 3d
       0.030147415 0.00019330729 -0.032720044 0.052256078
000310 da 71 07 bd 50 33 d5 3c 51 8b 09 bc 84 a4 0f 3b
       -0.03306756 0.026025444 -0.008395032 0.0021918127
000320 27 a3 62 3c 0e c6 71 bc 1f c8 a2 3c 85 3e b9 3c
       0.013832844 -0.014756693 0.019870816 0.02261282
000330 e4 ee 0f bd 0b f1 2d bd b7 4c 36 bb a5 b6 6b bc
       -0.035139933 -0.042466205 -0.0027816722 -0.014386808
000340 2c db 29 3d ca 10 2f 3d 96 ef fe 3b 8b 58 31 3d
       0.041468784 0.04274062 0.0077800257 0.04329733
000350 c7 ae ef bc 00 81 6b bc 04 e5 bd bd 85 26 42 bb
       -0.029258145 -0.014374018 -0.09272197 -0.002962501
000360 d9 32 a2 3c d8 90 bb bc ac d5 53 bc 9a 2d 97 3c
       0.019799637 -0.022896215 -0.012929361 0.018454362
000370 c8 31 41 bd cb 59 5a 3b 67 5f fa 3c ed e0 b7 bc
       -0.047166616 0.003331768 0.03056307 -0.02244612
000380 08 6d 97 3c 80 85 42 3c 33 7e 93 bc 80 57 f7 bc
       0.018484607 0.011872649 -0.018004512 -0.03019309
000390 98 13 a3 bc 96 b0 0a bc 1c 29 e9 bc 3e 67 14 bd
       -0.019906804 -0.008464953 -0.028461985 -0.036231272
0003a0 3d 0b e2 3c cc 58 f0 bc 2a 59 90 3d 73 5d 31 3c
       0.02759325 -0.029339217 0.07048257 0.010825503
0003b0 ae e5 b5 3c 28 b5 4e 3d ab b4 92 bc 4d f0 f3 3b
       0.022204246 0.050465733 -0.017908415 0.0074444176
0003c0 a6 36 31 bc e0 95 63 bd 40 88 65 3d d5 bc f6 bb
       -0.010816252 -0.055562854 0.05603814 -0.0075298348
0003d0 e2 51 d5 ba 37 44 9c bc 7f 7c 80 3c 71 fd 09 bd
       -0.0016275013 -0.019075496 0.015684364 -0.033688966
0003e0 55 10 17 3d d3 0c 1b 3d b0 a9 65 bd 39 97 c6 3c
       0.03688081 0.037854027 -0.05607003 0.02424203
0003f0 69 0a 2e bd c7 db 2c 3d 91 dd 5f bb 3f d9 e9 bd
       -0.042490397 0.042201784 -0.0034159163 -0.114183895

bias f4 [3]
000000 45 cd 04 3d 42 75 8f bc 80 7b 1a 3d
       0.032422323 -0.017511968 0.037715435
